examples/sudret_truss/model.pt (torch, 19220 bytes, 26 tensors)

weight f4 [12, 20]
0	0x3f5a35a7	0.85238117
1	0x400ce9cc	2.2017698
2	0xbee7561d	-0.45182887
3	0x3f197bf3	0.59954756
4	0xc0643784	-3.5658884
5	0xc12e65c9	-10.89985
6	0x3f818883	1.0119785
7	0xc14c7d82	-12.780642
8	0xc12aa5db	-10.665492
9	0xc0415889	-3.0210288
10	0x3e6940cf	0.22778629
11	0xbf066bc3	-0.5250818
12	0x4016ad1b	2.3543155
13	0x3ed4abac	0.41537225
14	0x3e3af352	0.18256882
15	0xbfa6ba2f	-1.3025569
16	0x3f884326	1.0645492
17	0xbecea2df	-0.40358636
18	0xbdba8963	-0.09108236
19	0x3fc18ab7	1.5120457
20	0xbeb755f2	-0.3580776
21	0xbea7269f	-0.32646653
22	0x3c32b819	0.01090815
23	0x3d03cb31	0.0321762
24	0x3e10d3df	0.14143322
25	0x3fb0c659	1.3810531
26	0x41ba6194	23.297646
27	0x4011f7c8	2.2807484
28	0x400cbe05	2.1990979
29	0x3f23e1bf	0.64016336
30	0x3cdff6b5	0.027339319
31	0x3eadbf9d	0.33935252
32	0x3d30718a	0.04307703
33	0x3c20dd09	0.009818324
34	0xbd876553	-0.06611123
35	0x3e151cec	0.14561814
36	0x415b39f1	13.701646
37	0x3d20c8d0	0.03925401
38	0xbd7c245a	-0.061558105
39	0xbd7d53d2	-0.061847515
40	0x3ebe48ec	0.3716501
41	0x3ef83f1b	0.48485646
42	0x3edf93f0	0.43667555
43	0xbdd55161	-0.104159124
44	0xc07feb2a	-3.9987283
45	0xc11d4eda	-9.831751
46	0xbf75b3d4	-0.9597752
47	0xc133850d	-11.219983
48	0xc1273bbf	-10.452086
49	0xc08b9866	-4.3623533
50	0xbe8f6b6c	-0.28011644
51	0x3f7bff4c	0.9843643
52	0xbea2d568	-0.3180344
53	0x3f3bdf46	0.73387563
54	0x3fc148c8	1.5100336
55	0x3f3527ad	0.70763665
56	0x40183259	2.378073
57	0x3f26fc46	0.6522869
58	0x3ea6e673	0.32597694
59	0x3f9becf1	1.2181684
60	0xbd249c80	-0.040188313
61	0xbfed0467	-1.8516968
62	0xbff02785	-1.876206
63	0xbe7e4980	-0.24832726
64	0x40356dde	2.8348308
65	0x411c5f2d	9.773236
66	0xbe97e0a0	-0.29663563
67	0x4168230b	14.508555
68	0x4110ed3e	9.05792
69	0x407bf495	3.936803
70	0xbf5d692c	-0.86488605
71	0x3efe4f41	0.4966984
72	0xbf63dd75	-0.8900979
73	0x3ec67a3f	0.3876514
74	0xbdc13bd0	-0.094352365
75	0x400f6de9	2.2410834
76	0xb9a3dd7a	-0.00031254796
77	0x3dd7ff7b	0.10546776
78	0xbf064b31	-0.52458483
79	0xbebf02c7	-0.37306806
80	0xbdf54f0f	-0.1197797
81	0x3e0dce3d	0.13848205
82	0xbeb4c506	-0.35306567
83	0xbee5ed1e	-0.4490747
84	0xbebcd934	-0.36884463
85	0xbf1e2978	-0.61782026
86	0xc1c8c290	-25.095001
87	0xbf999958	-1.1999922
88	0xbf960e5f	-1.1723136
89	0xbea89d5f	-0.32932565
90	0xbf076c2c	-0.5289943
91	0xbf2de97f	-0.6793441
92	0x3efe81b4	0.4970833
93	0x3f75f787	0.9608082
94	0xbf9b5655	-1.2135721
95	0xbe426b9c	-0.18986362
96	0x4159eaab	13.619792
97	0x3b0e4b84	0.0021712491
98	0x3d70d062	0.05879248
99	0xbdf1c1dd	-0.118045546
100	0x3e4f01af	0.20215486
101	0xbdab60a4	-0.08368042
102	0xbf06568d	-0.52475816
103	0xbf860f7b	-1.0473474
104	0xc0853251	-4.162392
105	0xc11fb9ab	-9.982829
106	0x3f0b8530	0.54500103
107	0xc15c3c63	-13.764743
108	0xc120cc1b	-10.04983
109	0xc068a491	-3.6350443
110	0xbe4e25ef	-0.20131658
111	0xbd4fe7d5	-0.0507582
112	0x3ff4cdf8	1.9125357
113	0x3ebec23a	0.37257558
114	0xbf0a2460	-0.53961754
115	0x3ed72fa3	0.4202853
116	0x3f37045b	0.7149102
117	0xbefde871	-0.495914
118	0xbf350c3c	-0.70721793
119	0xbebaaabf	-0.36458394
120	0x3ed8290c	0.42218816
121	0xbf8d063d	-1.1017529
122	0xbf3db25e	-0.7410029
123	0x3f42bfc6	0.76073873
124	0x40676a94	3.61588
125	0x4126c6ba	10.423517
126	0xbfcfe50d	-1.6241776
127	0x4160947a	14.036249
128	0x4126017f	10.375365
129	0x4099bd50	4.8043594
130	0xbfa69963	-1.301556
131	0xbe0325c7	-0.1280738
132	0xbf8cfa90	-1.1013966
133	0x3f35d485	0.71027404
134	0x3ec99f23	0.39379224
135	0x3f4daee0	0.80344963
136	0x3d75a72e	0.059973888
137	0xbf1453e8	-0.5794053
138	0xbf3a5900	-0.72792053
139	0xbf9485a9	-1.160329
140	0x3d5f0c49	0.054455075
141	0xbfabecf6	-1.343169
142	0xbf7ef5f7	-0.9959406
143	0xbe2b8c2d	-0.16752692
144	0x403b88a5	2.9302151
145	0x4124078c	10.2518425
146	0xbda178d1	-0.07884372
147	0x41690611	14.563981
148	0x41164840	9.392639
149	0x409b9e96	4.8631086
150	0xbf8df4a2	-1.1090281
151	0x3fc738fe	1.5564268
152	0x3e9ea41e	0.30984586
153	0x3dfff50f	0.12497913
154	0xbace21b6	-0.0015726599
155	0x3f777ac5	0.96671706
156	0xbfb273fd	-1.3941647
157	0x3ec7ef16	0.39049596
158	0xbf5f0e5f	-0.87131304
159	0xbf2edcde	-0.68305767
160	0xbc752b1f	-0.014963894
161	0xbde0f22d	-0.10983691
162	0xbd3440ff	-0.044007298
163	0x3ce73a6d	0.028226102
164	0x3ccaf776	0.024776202
165	0xbc7bbeca	-0.015365312
166	0xc100589e	-8.021635
167	0x3cb65496	0.02225713
168	0xbd0252d8	-0.031817287
169	0xbe0659bd	-0.1312017
170	0xbd76f8eb	-0.06029598
171	0xbc312e86	-0.010814315
172	0x3d279893	0.04091699
173	0xbd1481b1	-0.036256496
174	0xbd1ea93d	-0.038735617
175	0x3cefdc82	0.029279951
176	0x418fff18	17.999557
177	0x3d597f05	0.05309965
178	0xbd40dd0f	-0.047085818
179	0x3d95d4b6	0.07315962
180	0xbea9bdc8	-0.33152604
181	0x3e455745	0.19271572
182	0x3e053487	0.13008319
183	0xbe24f17e	-0.16107747
184	0x3de616a7	0.11234789
185	0xbd683957	-0.05669531
186	0xc1978b67	-18.943068
187	0x3dfc431f	0.1231749
188	0x3dc4ee8b	0.09615811
189	0x3efeb6ab	0.4974874
190	0x3e8ebb52	0.2787729
191	0x3e4a3e7c	0.19750398
192	0xbe68288a	-0.22671714
193	0x3e9d5d7c	0.30735385
194	0x3ddfcf06	0.109281585
195	0xbdcba13e	-0.09942864
196	0x418da587	17.705824
197	0xbe44deba	-0.19225588
198	0x3db0ba12	0.0862924
199	0x3e13dd79	0.14439954
200	0xbe72349a	-0.23652878
201	0xbeb49778	-0.3527181
202	0x3d392a11	0.045206133
203	0xbe43750a	-0.19087616
204	0xbb89f51d	-0.004210128
205	0xbe98dbf1	-0.29855302
206	0x41fb20e5	31.391062
207	0xbf0f3973	-0.55947036
208	0x3e08c565	0.1335655
209	0x3eb05953	0.3444315
210	0x3d0b2831	0.033973876
211	0x3e4389ea	0.19095579
212	0x3e858e1c	0.26084983
213	0xbe0b9e8f	-0.13634704
214	0xbeed14ce	-0.46304935
215	0x3eb7126e	0.35756248
216	0xc162975b	-14.161952
217	0xbdf9416c	-0.12170681
218	0xbea977d5	-0.33099237
219	0xbe9ee784	-0.31036007
220	0x3f69cc91	0.9132777
221	0x3f2362e4	0.6382277
222	0x3f9079bd	1.1287152
223	0xbd4df7f1	-0.050285283
224	0xc08abdad	-4.335654
225	0xc11496f6	-9.286856
226	0x40cd60a5	6.4180474
227	0xc1373ac7	-11.45185
228	0xc1296d39	-10.589166
229	0xc051080b	-3.266116
230	0xbf248577	-0.6426615
231	0xbf1bce34	-0.60861516
232	0x3f35d1fd	0.7102354
233	0x3f2cfe42	0.67575467
234	0xbe30afad	-0.17254515
235	0xbe531d72	-0.20616701
236	0x40ad8cf2	5.423455
237	0xbf6845f5	-0.90731746
238	0x3d8e1d1a	0.069391444
239	0x3f00674a	0.50157607

bias f4 [12]
0	0x41d3f3af	26.493986
1	0x41ff910a	31.94582
2	0x41dd430d	27.65774
3	0x41e244fc	28.283684
4	0xc120ec5e	-10.057707
5	0x41d0cffc	26.101555
6	0x41daa4b1	27.330416
7	0x41d30bed	26.380823
8	0xc18a2cdc	-17.271904
9	0xc16e836b	-14.907084
10	0xc10c9f44	-8.788883
11	0x4214ac34	37.168167

weight f4 [12, 12]
0	0xc04978fb	-3.148009
1	0xc05704ee	-3.359676
2	0x409b4d63	4.8531966
3	0x40bb499a	5.8527346
4	0x3fc0b344	1.5054708
5	0xc08643fb	-4.1957984
6	0x41201824	10.005894
7	0xbefcd317	-0.493798
8	0xc0b60a7e	-5.688781
9	0x3f4d5282	0.8020402
10	0x402731c4	2.6124125
11	0xc0eb7ee9	-7.359242
12	0xbf94e1be	-1.1631391
13	0x3f69e3f4	0.91363454
14	0xbf9d54bb	-1.2291483
15	0x3fa5b5e3	1.2946132
16	0x406749a5	3.61387
17	0x4024a89c	2.572791
18	0x401a0715	2.4066823
19	0xbfa8473e	-1.3146741
20	0xc1e2c4e3	-28.346136
21	0x41769411	15.411149
22	0xc0e68360	-7.203537
23	0xc0231cdd	-2.5486367
24	0xbfb5d849	-1.420663
25	0x401fd7a4	2.4975367
26	0x407d3fe1	3.9570239
27	0x40353cbe	2.8318324
28	0x40aa30e4	5.318468
29	0x4007401b	2.1132877
30	0x3ffcdd5a	1.9755051
31	0xc040b2c9	-3.0109122
32	0xc1c84069	-25.03145
33	0x419999d2	19.200108
34	0xc1216598	-10.087303
35	0x401179f0	2.2730675
36	0x3e3f9589	0.18709387
37	0x4030ba1a	2.7613587
38	0xbe5f925e	-0.21833178
39	0x3e21d8f7	0.15805422
40	0x411d1494	9.817524
41	0xc0b0a14e	-5.5196905
42	0x400bec51	2.1862986
43	0xbffd4a78	-1.9788351
44	0xc17d2f6d	-15.824079
45	0x40ae7a9c	5.452467
46	0xbfea9208	-1.8325815
47	0xc02d4278	-2.707182
48	0x404cafb3	3.1982238
49	0xbfd16d4d	-1.6361481
50	0x4046da07	3.1070573
51	0xc0a52a51	-5.1614156
52	0xc1306fc3	-11.027286
53	0xc0ad1bce	-5.409644
54	0xc03a6dab	-2.9129436
55	0x4035408c	2.8320646
56	0x419de8cc	19.73867
57	0xc0b75d56	-5.7301435
58	0x40e7db26	7.2455015
59	0x40cc3511	6.381478
60	0xc104d814	-8.302753
61	0xbed76d38	-0.42075515
62	0x4026c84c	2.6059752
63	0xbf1f0ba7	-0.62127155
64	0xc0a38df4	-5.1110783
65	0xc006c3ec	-2.1057081
66	0xc022bd9a	-2.5428224
67	0xbee245ca	-0.4419387
68	0x4169a2f8	14.602287
69	0xc1097b4d	-8.592603
70	0xc0b3d23c	-5.6194134
71	0x40812ae5	4.036486
72	0xc08c9f06	-4.394412
73	0xc0935d74	-4.605158
74	0x40143f33	2.3163574
75	0x40c2566c	6.0730495
76	0x407159d3	3.7711074
77	0x408dbde9	4.4294324
78	0x40e6442a	7.195821
79	0x4049a44d	3.1506531
80	0x3ecfe570	0.40604734
81	0xc0e54f0f	-7.1659007
82	0x40637866	3.5542235
83	0xc12136bf	-10.075866
84	0xbf96b9f8	-1.1775503
85	0xbf4184bc	-0.7559316
86	0xbf37204d	-0.7153366
87	0xc0318afe	-2.7741084
88	0xc04ca774	-3.1977205
89	0xbf4e013a	-0.8047062
90	0xc074b11b	-3.8233097
91	0x406c48e2	3.6919484
92	0x413ed105	11.92603
93	0xc0f8eb90	-7.778755
94	0x400e0cc1	2.2195284
95	0xbf2b5a0b	-0.6693427
96	0xc070b669	-3.7611334
97	0x3fc35294	1.5259576
98	0xbfee1ee6	-1.860318
99	0x40004563	2.004235
100	0x40669f3d	3.6034691
101	0x4031dd7b	2.779143
102	0x40101653	2.2513626
103	0xc04102d8	-3.0157986
104	0xc18119eb	-16.137655
105	0x41354c04	11.3310585
106	0xc11f7ead	-9.968427
107	0xc05ff54d	-3.499347
108	0x3fff3709	1.993867
109	0xbf93ee51	-1.1557103
110	0x3fe9d2d6	1.8267467
111	0xbfbbe9dc	-1.4680743
112	0xc056f2c5	-3.3585675
113	0x3dd9a2f5	0.10626785
114	0xbfcb07f1	-1.5861799
115	0x40032183	2.0489204
116	0x420485c8	33.130646
117	0xc1b3e1de	-22.485287
118	0x40b9a368	5.801197
119	0x402c062e	2.6878772
120	0xbfa1b131	-1.26322
121	0x3fad71fd	1.3550411
122	0xbfc03d79	-1.501876
123	0x3f96cede	1.1781881
124	0x404c9956	3.196859
125	0x3ef1b468	0.47207952
126	0x3f1ba4ac	0.60798144
127	0xbf45efc3	-0.7731897
128	0xc2274e0a	-41.82621
129	0x42053311	33.29987
130	0xc08a9b39	-4.331448
131	0xc0382a3b	-2.8775775
132	0xc023f3f2	-2.5617642
133	0x3f5cb669	0.86215836
134	0xc00d4975	-2.2076085
135	0x4042ceb8	3.043867
136	0x4082f109	4.091923
137	0x4036257a	2.8460374
138	0x405f60db	3.4902866
139	0xbfdcd970	-1.7253857
140	0xc1de7f33	-27.812109
141	0x41a268fb	20.30126
142	0xc0c04ddd	-6.009505
143	0xc086bc39	-4.2104764

bias f4 [12]
0	0x414ec06c	12.921978
1	0x41814ad9	16.161547
2	0x405e008a	3.468783
3	0x41812f17	16.147993
4	0x403b47e3	2.9262626
5	0x4116f534	9.434864
6	0x409eaf45	4.958895
7	0xc014415c	-2.3164892
8	0x427cacbe	63.168694
9	0x40646ded	3.5692093
10	0xc06e07a9	-3.7192175
11	0x42668c97	57.637295

weight f4 [12, 12]
0	0xc0477d70	-3.117031
1	0x40050497	2.0784051
2	0x4036ab17	2.8541925
3	0x40184d55	2.37972
4	0x3f78957e	0.97103107
5	0x3f131405	0.5745242
6	0x3f71af39	0.94407994
7	0x3ede50a8	0.4342091
8	0x41b018cd	22.01211
9	0x42284bc5	42.073994
10	0xc1dc16b0	-27.511078
11	0xc20efbcc	-35.745895
12	0xbe4be024	-0.19909722
13	0x3f2d075a	0.6758934
14	0x40c281ef	6.078361
15	0xbe095e22	-0.13414815
16	0x3ed7bc2c	0.4213575
17	0xbea0e41f	-0.31424043
18	0xbe68c468	-0.22731173
19	0xbe08ec81	-0.13371469
20	0x41815edb	16.171316
21	0x412cbd12	10.79616
22	0xc143d412	-12.239275
23	0xc16b9817	-14.724631
24	0x3e5a4b18	0.21317708
25	0xbee3784b	-0.44427714
26	0x41d21868	26.261917
27	0xbe8bddbf	-0.27317616
28	0xbf4c2f39	-0.79759556
29	0xbe7abdbc	-0.2448644
30	0xbecc3fa2	-0.39892298
31	0xbe8a3c0e	-0.26998943
32	0xc0cf59ce	-6.4797125
33	0xc014bc59	-2.3239958
34	0x40360965	2.8443234
35	0x40388647	2.8831956
36	0x3fd380d2	1.6523688
37	0xbf0be02c	-0.54638934
38	0xc01d94fc	-2.4622183
39	0xc1d863ca	-27.048725
40	0x3eec64de	0.46170706
41	0x3e8c3101	0.27381137
42	0x3ea1a911	0.315743
43	0x3e0628de	0.13101527
44	0xc055223d	-3.3302147
45	0x40672489	3.611605
46	0x40099f02	2.15033
47	0x406f6851	3.740742
48	0x3e1bdc21	0.15220691
49	0xbecf86e5	-0.40532604
50	0xbf482f3c	-0.78197074
51	0xbe597adb	-0.21238272
52	0x41ecc8b2	29.597996
53	0x3ebc97b6	0.36834496
54	0xbd8fb72c	-0.07017359
55	0xbe08c4ab	-0.13356273
56	0xc083e646	-4.1218596
57	0x3fb28bbd	1.3948895
58	0x3efd85b1	0.4951606
59	0x3fae0e19	1.3598052
60	0x40f93f50	7.7889786
61	0xc0ca130b	-6.3148246
62	0xc010d50c	-2.2630033
63	0xbe9d6491	-0.3074079
64	0x3f05e5b3	0.5230362
65	0x4079b3a7	3.90159
66	0xbfd347fd	-1.6506344
67	0xbf4f9e9a	-0.8110138
68	0x409b6065	4.855517
69	0xc0cabdf0	-6.3356857
70	0x40730c0c	3.7976103
71	0x40f7726d	7.732718
72	0x402d30d3	2.706105
73	0x4166f1e2	14.434053
74	0x40028272	2.0392118
75	0xbdb44fe0	-0.088042974
76	0x4092ee18	4.591564
77	0xc0af0ad6	-5.4700727
78	0xc170d303	-15.051517
79	0x407781b5	3.8672917
80	0x40afa64e	5.489051
81	0x4136601b	11.398463
82	0xc13dfb51	-11.873857
83	0xc0dc4841	-6.88382
84	0x3ea926e0	0.33037472
85	0x3ea2f8a3	0.3183032
86	0x3f31b163	0.69411296
87	0xbe4cf2f0	-0.20014548
88	0x3d9a53b6	0.07535498
89	0x3e31d528	0.17366469
90	0x3ef45787	0.47723028
91	0xc1caf76a	-25.370808
92	0x3fc3d7ef	1.5300273
93	0x40660e90	3.5946388
94	0xbffcfada	-1.9764054
95	0xc00e9371	-2.227749
96	0x3db2d832	0.08732642
97	0x3f982632	1.1886656
98	0x4003ce13	2.0594528
99	0x3f34f95d	0.70693
100	0x3ec6728b	0.38759264
101	0xbec20b72	-0.37899357
102	0x3d0e399c	0.03472291
103	0xbe81f88a	-0.25384933
104	0x40c7f04a	6.248082
105	0x41571bc0	13.444275
106	0xc11af828	-9.685585
107	0xc1584609	-13.517098
108	0xba80d7d2	-0.0009829944
109	0x4003197b	2.0484302
110	0x403c332b	2.940623
111	0xbefbbcf8	-0.4916761
112	0x3f7b1842	0.9808389
113	0xbee5d386	-0.44887942
114	0x3e96e472	0.29471165
115	0x3f441077	0.76587623
116	0x40d2e5d8	6.590557
117	0x4135cb94	11.362202
118	0xc1165cfd	-9.397702
119	0xc1389c27	-11.538123
120	0xbef8a5a9	-0.4856389
121	0x3f9e1cf0	1.2352581
122	0x40013be4	2.0192804
123	0xbdd3ecdf	-0.10347914
124	0x3f1f91c8	0.6233182
125	0x3f46eefd	0.7770842
126	0x3eab9e5e	0.33519262
127	0x3eb313fc	0.34976184
128	0x40b18418	5.5473747
129	0x413bd0a2	11.738436
130	0xc114cec0	-9.300476
131	0xc146c991	-12.424211
132	0x3d13ada2	0.03605426
133	0x3ffdbf03	1.9823917
134	0x3ec05018	0.37561107
135	0xbe6a5422	-0.22883657
136	0xbf5e2fbb	-0.8679158
137	0x3f29177f	0.6605148
138	0xbfa2cf9f	-1.2719611
139	0x3f3fd973	0.74941176
140	0x414e46e7	12.89231
141	0x42023642	32.552986
142	0xc1e1416d	-28.156946
143	0xc1efbd4d	-29.967432

bias f4 [12]
0	0x3fdc6ee6	1.7221344
1	0x41a2a99d	20.332819
2	0xbfd7a75f	-1.6847953
3	0x409a0b6c	4.8138943
4	0xc0010b15	-2.0163014
5	0xc05e73cd	-3.475818
6	0x405798e4	3.3687067
7	0xbff76801	-1.9328614
8	0xc08e76f8	-4.4520226
9	0xc07f24dc	-3.9866247
10	0xc065c783	-3.5903022
11	0x3fad3e57	1.353465

weight f4 [12, 12]
0	0x41f041ad	30.032068
1	0xbefd56b4	-0.49480212
2	0xbfee58d1	-1.8620855
3	0x3e204c7f	0.15654181
4	0x3ec92128	0.3928311
5	0x3eb990b8	0.36243224
6	0x3f126309	0.57182366
7	0x3f2901cb	0.6601836
8	0xbf32655a	-0.696859
9	0x3fc072e0	1.5035057
10	0xbfa8d143	-1.3188862
11	0x3e9103e6	0.28323287
12	0x3f17e667	0.5933594
13	0xbfc7fece	-1.5624635
14	0xc01f35f8	-2.487669
15	0x3e208fd3	0.15679865
16	0x3f5e44d2	0.8682376
17	0xbf301a03	-0.6878969
18	0xbe04c4f6	-0.1296576
19	0x3e80ee0f	0.25181624
20	0x419a45c9	19.284075
21	0xc18fcd5f	-17.975279
22	0x41a67166	20.80537
23	0x41d48f63	26.570013
24	0x3fa4b9ec	1.2869239
25	0x3edf59c4	0.43623173
26	0x41444406	12.266607
27	0x3eb5fa04	0.3554231
28	0xc06c50fa	-3.6924424
29	0x3c008273	0.0078436015
30	0x3e2b6a1a	0.16739693
31	0xbf84f905	-1.0388495
32	0xc1c90077	-25.125227
33	0x41e518db	28.637136
34	0xc1cb6aab	-25.427084
35	0xc1c2e687	-24.362562
36	0x40954852	4.665078
37	0xbee16192	-0.44019753
38	0x4125448a	10.329233
39	0xc112bda1	-9.171296
40	0x3e9085e7	0.2822716
41	0xbeeb89a0	-0.46003437
42	0x3fbf6aee	1.4954507
43	0xbf9b215c	-1.2119555
44	0xc15060e0	-13.023651
45	0x4187feb8	16.999374
46	0xc1181cde	-9.507048
47	0xc153041e	-13.188505
48	0x3e4f1883	0.20224194
49	0xbf726666	-0.946875
50	0xc0273e0e	-2.6131625
51	0x3ff2c7cb	1.8967222
52	0x414f9841	12.974671
53	0xbf866762	-1.05003
54	0xbf910e70	-1.1332531
55	0x3fe98959	1.824504
56	0x4187d628	16.979568
57	0xc13c8b65	-11.784032
58	0x41534ffe	13.207029
59	0x415e9161	13.910493
60	0xc046ec26	-3.1081634
61	0x4015144b	2.3293636
62	0xc0e7ee42	-7.247834
63	0xc0121081	-2.2822573
64	0xbf9b1e7c	-1.2118678
65	0x3fecf4c4	1.8512197
66	0x40708ac0	3.7584686
67	0xbef2faa3	-0.47456846
68	0xbf588b8b	-0.84587926
69	0x4081df61	4.058518
70	0xc0d44281	-6.633118
71	0xc0f41f87	-7.6288486
72	0x403d3dd2	2.9568982
73	0xc02aab95	-2.6667225
74	0x3f3d8c81	0.74042517
75	0xbf6743a2	-0.90337574
76	0xc0312e0a	-2.768435
77	0xc0b59f14	-5.6756687
78	0xc0770014	-3.8593798
79	0x40a350de	5.1036215
80	0x41752258	15.320885
81	0xc144a2f8	-12.289787
82	0x40cc3a3a	6.3821077
83	0x4144ce7b	12.30041
84	0xbf1ac98a	-0.60463774
85	0x3f007ead	0.5019329
86	0x3eb1e384	0.34743893
87	0x3f25aa9d	0.6471346
88	0xbfac8882	-1.3479159
89	0x3e570c01	0.21000673
90	0xbfa31da0	-1.2743416
91	0xc084198e	-4.1281195
92	0xc1b2440b	-22.283224
93	0x41d0db3d	26.10705
94	0xc1ad14cd	-21.635157
95	0xc1ad74fb	-21.68212
96	0x3ed54a2f	0.4165816
97	0xbc1a33ec	-0.009411793
98	0x3fb0fefb	1.3827814
99	0x3ef2026a	0.47267467
100	0xbef0e14e	-0.47046894
101	0xbf4374c8	-0.7635007
102	0x3e904e05	0.28184524
103	0xbf8f9393	-1.1216911
104	0xc1100f75	-9.003774
105	0x413bf75c	11.74789
106	0xc138b7c0	-11.544861
107	0xc12a1565	-10.630223
108	0xbe1d3198	-0.1535095
109	0x3f4dcef2	0.803939
110	0x3ee221a8	0.44166303
111	0xbe671702	-0.2256737
112	0xbeac42ef	-0.33644816
113	0x3f0d45a3	0.5518438
114	0xbec03b1a	-0.3754509
115	0xbe3be2c3	-0.18348221
116	0xc0bf8cd2	-5.98594
117	0x409a9601	4.830811
118	0xc0fc25db	-7.879621
119	0xc0d45080	-6.6348267
120	0x3ed01394	0.40639937
121	0x3e9b3435	0.30313268
122	0x3fc69e93	1.5517143
123	0xbd9bdb23	-0.076101564
124	0xbe8b4cd0	-0.2720704
125	0xbe3b18f1	-0.18271233
126	0x3eded1df	0.43519494
127	0xbd9f44f8	-0.077768266
128	0xc13c957e	-11.786497
129	0x4139f0d8	11.6213
130	0xc11cc4af	-9.798018
131	0xc12345c7	-10.2045355
132	0xbded4ab9	-0.11586518
133	0xbff076c7	-1.8786248
134	0xc060e240	-3.5138092
135	0x3de24806	0.11048894
136	0x3f1aa0af	0.60401434
137	0x3dd6e952	0.10493721
138	0xbeea39e9	-0.45747307
139	0x3fae6a0c	1.3626113
140	0x41ac01ed	21.50094
141	0xc18ec1c5	-17.844614
142	0x41b0b5d5	22.088785
143	0x41b0fbd1	22.122957

bias f4 [12]
0	0xc00e1572	-2.220059
1	0x401694c7	2.3528306
2	0x4049046c	3.140895
3	0x3f6fe480	0.9370804
4	0x3f85e085	1.0459143
5	0xc03cca7b	-2.9498584
6	0x407bf3bd	3.9367516
7	0x3f35bb99	0.70989376
8	0x3fa62cc7	1.2982415
9	0xc05cf116	-3.4522147
10	0x3ffb39e1	1.9627038
11	0x401b3335	2.4250004

weight f4 [12, 12]
0	0x3ee393e3	0.44448766
1	0xbf28333c	-0.6570318
2	0xbf82a50c	-1.0206618
3	0x407128bf	3.768112
4	0x3fe9ddec	1.827085
5	0xbf84f299	-1.0386535
6	0xbfbdfd2a	-1.4842885
7	0xc07d3e64	-3.956933
8	0x41639ce6	14.225805
9	0x40ff138e	7.971137
10	0x41b36da3	22.428534
11	0x416fcbde	14.987272
12	0x3f9dbe53	1.2323707
13	0xbfe72df7	-1.8060902
14	0x40617d50	3.5232735
15	0x3a8ed265	0.0010896443
16	0x3f11562d	0.5677212
17	0xbe575282	-0.21027568
18	0x3e5bf7f3	0.21481304
19	0x3f8895c0	1.06707
20	0x4176bdad	15.421308
21	0x41a7d653	20.97965
22	0x41ae16a7	21.76106
23	0x41b56427	22.673903
24	0x3d68097a	0.056649663
25	0xbdf91fb3	-0.12164249
26	0xc1b8243d	-23.017694
27	0xbd04b0c7	-0.03239515
28	0x3efc8db4	0.4932686
29	0x3d6d359c	0.057912454
30	0x3dd972b0	0.10617578
31	0x3f823198	1.0171385
32	0x40a9a0ed	5.3008943
33	0x406ade35	3.6698124
34	0x4093e741	4.621979
35	0x40539e91	3.3065531
36	0x40943165	4.6310296
37	0xbf6812cc	-0.9065368
38	0x4078b294	3.8858995
39	0x41250224	10.313023
40	0x400949e1	2.1451342
41	0xc0b56f29	-5.6698194
42	0x3fc62786	1.5480812
43	0xc0df763d	-6.9831834
44	0x40d54125	6.664202
45	0x40ba65dc	5.824934
46	0x41031377	8.192252
47	0x40d15822	6.5420084
48	0xbfce2791	-1.6105825
49	0x3fc79e17	1.559512
50	0xc03c879d	-2.9457772
51	0xbf9ea642	-1.2394488
52	0xc13eedb0	-11.933029
53	0x3f0cc2f3	0.5498497
54	0x3f64f712	0.894395
55	0xbfbe8498	-1.4884214
56	0xc1d1146a	-26.134968
57	0x40c9e5bd	6.309294
58	0xc1e17a60	-28.184753
59	0xc14b675e	-12.712736
60	0xbf0c910f	-0.5490884
61	0xc110d95e	-9.053068
62	0x4046b275	3.1046422
63	0x3d5ec2df	0.054385062
64	0xc0b821e6	-5.754138
65	0xbe653dd7	-0.22386871
66	0x3e9d28f3	0.30695304
67	0xc11cb235	-9.793508
68	0x402855aa	2.6302285
69	0x40f47e86	7.6404448
70	0x40952f93	4.6620574
71	0x4185717d	16.680414
72	0xc005b616	-2.0892386
73	0xbf5c3b4b	-0.86027974
74	0x40168e6c	2.3524427
75	0x3eaf795d	0.3427228
76	0x3f5d3317	0.8640608
77	0xbf8fce20	-1.1234779
78	0xc049520d	-3.145633
79	0xc013ec7e	-2.3113093
80	0x4192aac5	18.333384
81	0x4182fecf	16.374418
82	0x41a50d52	20.631504
83	0x40e3fa38	7.1242943
84	0x3f4590b4	0.77173924
85	0xc04f3ebc	-3.238204
86	0x40a2e398	5.0902824
87	0x3e856b74	0.26058543
88	0x3fbf2f94	1.4936395
89	0x3ec4b4d5	0.38419214
90	0x3ec9423d	0.39308348
91	0x42153f2f	37.311703
92	0xc066e460	-3.607689
93	0x3fcee56d	1.6163765
94	0xc048e4f1	-3.1389735
95	0xc028a20c	-2.6348906
96	0xbf2ef7b5	-0.6834672
97	0x3fba45a0	1.4552498
98	0xbffbbdca	-1.9667294
99	0xbe0a5253	-0.13507967
100	0xbf4b1f6f	-0.7934484
101	0xbd64ceb3	-0.055861186
102	0xbec52d7c	-0.38511264
103	0x3ec1d1e4	0.37855446
104	0xc048e187	-3.138765
105	0xc1c54101	-24.65674
106	0xc118bc01	-9.545899
107	0xc1833535	-16.40098
108	0x3fba1cb5	1.4540011
109	0xbea5b246	-0.32362574
110	0x40a516f2	5.159051
111	0x3f3cb499	0.7371307
112	0x3e8dffd9	0.2773426
113	0xbf0e59aa	-0.55605567
114	0x3f8b166b	1.0866216
115	0x3fb3fc71	1.4061414
116	0x41c01458	24.009933
117	0x4180aa96	16.083294
118	0x41c9f556	25.244793
119	0x413d061a	11.81399
120	0xbe415f28	-0.18883955
121	0x3fb05fab	1.3779196
122	0xc07a7b6e	-3.9137836
123	0xbf233a3a	-0.6376072
124	0xbd542b68	-0.051799208
125	0xbf08bf33	-0.53416747
126	0xbd0745a2	-0.03302539
127	0xbe15efdb	-0.14642279
128	0xc18dd75b	-17.730154
129	0xc080e5ed	-4.028067
130	0xc17f194e	-15.943678
131	0xc1482045	-12.507878
132	0xbc99ce23	-0.018775051
133	0xbfbccf21	-1.4750711
134	0x405764c5	3.3655255
135	0xbf2ba1a3	-0.67043513
136	0xbf0b50f4	-0.544204
137	0x3d6d93c1	0.058002237
138	0xbf9431cc	-1.1577697
139	0x3f5bb464	0.8582213
140	0x418a8900	17.316895
141	0x41f89d17	31.076704
142	0x418cae4f	17.585112
143	0x41a5e7e7	20.738234

bias f4 [12]
0	0x4042fe2c	3.0467634
1	0x3ff5dcd5	1.9208018
2	0xbf96c160	-1.1777763
3	0xbec71a52	-0.38887268
4	0xc03e836d	-2.9767716
5	0x40b124f5	5.5357614
6	0x4079a481	3.9006655
7	0x408fc362	4.4926004
8	0x42eaf46d	117.477394
9	0x4038ec2c	2.8894148
10	0x3ff668d6	1.9250743
11	0x40094fec	2.145503

weight f4 [12, 12]
0	0x407420e2	3.814507
1	0x3f3dcb5a	0.74138415
2	0x3f89baf1	1.0760175
3	0xbfed1160	-1.8520927
4	0xbfdde289	-1.7334758
5	0x40b2fa5d	5.593062
6	0x3e311cdc	0.17296165
7	0xbe3bd508	-0.18342984
8	0xc07a4e08	-3.9110126
9	0xbf325025	-0.6965354
10	0xc10f7071	-8.9649515
11	0xc13f1383	-11.942264
12	0xbec87f1a	-0.3915947
13	0xbfa00fca	-1.2504818
14	0xc04d884f	-3.2114446
15	0xbeaebb63	-0.3412734
16	0x3f1edbd3	0.62054175
17	0x3e90f12d	0.28309003
18	0x3daefcc3	0.08544304
19	0xbeaaeda4	-0.3338443
20	0x415792fa	13.473383
21	0x419b4d6b	19.412802
22	0x41071493	8.442523
23	0x4181dc45	16.232553
24	0xbe98c4b9	-0.29837587
25	0xbf889967	-1.0671815
26	0xc11a2a9d	-9.635404
27	0x3f627bb3	0.8847
28	0x40820a29	4.0637403
29	0xbf866e7c	-1.0502467
30	0x3fae0684	1.3595738
31	0xc0230df9	-2.5477278
32	0x41a2bd3a	20.342396
33	0x42280024	42.000137
34	0x41795463	15.583102
35	0x41b3b36f	22.462614
36	0x402bc376	2.683805
37	0x3cd28159	0.025696443
38	0x3f1ebbe0	0.62005424
39	0x40428b1d	3.0397408
40	0x407b664f	3.9281194
41	0xc01a41be	-2.4102626
42	0xbf5eda6d	-0.8705204
43	0xc0896bf1	-4.2944264
44	0x418955ce	17.166897
45	0x4166c450	14.422928
46	0x4171969e	15.099272
47	0x41040c87	8.253058
48	0x3fb1db2f	1.3895015
49	0x403a4c79	2.9109175
50	0x4025ba07	2.5894792
51	0x3ee54d37	0.44785473
52	0xc18dd2ac	-17.727867
53	0x3f059e2a	0.52194464
54	0x3f566a68	0.83756113
55	0x3f5a4e56	0.8527578
56	0xc1796a83	-15.588504
57	0x4012ca5f	2.2936018
58	0xc2031485	-32.77004
59	0xc15cfe59	-13.812097
60	0x3d6cc4d1	0.057804886
61	0xc0c6b109	-6.2091107
62	0xbfbe9d9e	-1.4891851
63	0xbeedaede	-0.46422476
64	0xbf18146c	-0.5940616
65	0x40aca53c	5.39517
66	0xbf220559	-0.6328941
67	0x40243933	2.5659912
68	0x40cccdab	6.400106
69	0x41475da2	12.46036
70	0x41132641	9.196839
71	0xbfc45241	-1.5337602
72	0xc040b35f	-3.010948
73	0xbca2ff4a	-0.019897122
74	0xc0012977	-2.0181558
75	0xc0215cf4	-2.5212984
76	0x405f7059	3.4912322
77	0xbf7d740b	-0.9900519
78	0xc029a897	-2.650915
79	0xc031d675	-2.7787144
80	0x412bb3dd	10.731412
81	0x4138863c	11.532772
82	0x4156b3e5	13.41892
83	0x414c0c6f	12.753036
84	0x3fccab67	1.5989808
85	0xc004ca83	-2.0748603
86	0xbfaa601b	-1.3310579
87	0xbf8eac86	-1.11464
88	0x3eb9f766	0.36321563
89	0xbf8b50c7	-1.0884026
90	0x3f4b2f63	0.7936918
91	0xc1456379	-12.336785
92	0x411d3cd4	9.827351
93	0x41827540	16.307251
94	0x41201f87	10.007697
95	0x417db5d1	15.856889
96	0xbd624d22	-0.05524934
97	0x3fe347c2	1.7756274
98	0x40420132	3.031323
99	0x3ec3b38a	0.38222915
100	0x3ee99f17	0.45629188
101	0xbf0ec9ef	-0.55776876
102	0x3ddb4c01	0.10707856
103	0x3e2b6bb6	0.16740307
104	0xc1937043	-18.429815
105	0xc14cd6fd	-12.802487
106	0xc1aa1069	-21.258013
107	0xc1b648ff	-22.785643
108	0x3db036e3	0.08604219
109	0x402dda5e	2.716453
110	0x405739ad	3.3628953
111	0x3f5b3d70	0.8564062
112	0xbf9b65e9	-1.2140476
113	0xbf50a43a	-0.8150059
114	0xbea17e61	-0.31541732
115	0x3eca7e69	0.39549568
116	0xc1ab055f	-21.377623
117	0xc13f3e25	-11.952672
118	0xc1b58c20	-22.69342
119	0xc1c5bb8a	-24.716572
120	0xbef5fdfc	-0.48045337
121	0xbf6d34fb	-0.92658967
122	0xc033161b	-2.7982242
123	0xbe92b099	-0.28650358
124	0x3f8169db	1.011043
125	0xbcada31e	-0.021195944
126	0xbd0ae949	-0.033913884
127	0x3e2a912c	0.16656941
128	0x41935edd	18.42132
129	0xbeedead2	-0.46468216
130	0x41c453ed	24.54098
131	0x419a24ec	19.268028
132	0xbda02068	-0.07818681
133	0xbe45de0c	-0.19322985
134	0xbf9a7d53	-1.2069496
135	0x3f0347b2	0.51281273
136	0x3f766977	0.96254677
137	0xbf799f6a	-0.9750887
138	0x3ddd4fb3	0.10806217
139	0xbf1e1dcd	-0.6176422
140	0x40e37352	7.107827
141	0x417aa55e	15.665373
142	0x411ff6c3	9.997745
143	0x41114636	9.079641

bias f4 [12]
0	0xc0a90fe8	-5.2831917
1	0x41decaa8	27.848953
2	0x403a260a	2.9085717
3	0x41baf5e5	23.370066
4	0x400440ff	2.066467
5	0xc013dc4a	-2.3103204
6	0x41ac163d	21.510859
7	0x3f89fb3e	1.0779798
8	0x4013ec00	2.3112793
9	0x40173082	2.3623357
10	0x42c9a7a6	100.82744
11	0xc02adbf7	-2.6696756

weight f4 [12, 12]
0	0xc09719ca	-4.721898
1	0x3ec908bc	0.39264476
2	0x4056d6b7	3.3568552
3	0x3efbd979	0.49189356
4	0xc03c5da4	-2.9432154
5	0xbff9f0ad	-1.9526573
6	0xbdd5d490	-0.10440934
7	0x3e8cd11a	0.27503282
8	0x4135c8b1	11.361497
9	0xc1615ec4	-14.085636
10	0xc216627a	-37.59617
11	0xc224ed9b	-41.232037
12	0xbe2529a3	-0.16129164
13	0xbfa9cd79	-1.326583
14	0xc0aeec58	-5.4663506
15	0xbe35c91c	-0.17752498
16	0xbf6997e3	-0.91247386
17	0x3e80bdf3	0.2514492
18	0xbe0a413b	-0.13501446
19	0xbf8a5410	-1.0806904
20	0x41112ee2	9.073946
21	0xc1172577	-9.446647
22	0xc1d6a5e1	-26.830996
23	0xc1a3ff54	-20.499672
24	0x3efd2761	0.49444106
25	0xbf9c8c77	-1.2230366
26	0xc1d8ff54	-27.124672
27	0x3f6386d3	0.888776
28	0xc045d580	-3.091156
29	0x3f457d7d	0.77144605
30	0xbf53d2e7	-0.82743686
31	0xbfd59a63	-1.668774
32	0x413eda10	11.928238
33	0xc14f95c1	-12.974061
34	0xc172ad71	-15.167344
35	0xc18bbf50	-17.468414
36	0xbfc83a5b	-1.5642809
37	0xbf6574ed	-0.8963154
38	0xc013cf0c	-2.3095121
39	0xc1278331	-10.469529
40	0xbfaeee7b	-1.3666528
41	0x3f38fde7	0.72262424
42	0x3ee96e8a	0.45592147
43	0xbff3ce81	-1.9047395
44	0x418170c7	16.180067
45	0xc15cea2c	-13.807171
46	0xc1a2f200	-20.368164
47	0xc15da3bf	-13.852477
48	0x3f75084e	0.95715797
49	0x4073e908	3.811098
50	0x409abc0c	4.835455
51	0x3fac32d5	1.3453013
52	0x41630230	14.188034
53	0x3fcc1a09	1.5945445
54	0xbe3d1b5e	-0.18467471
55	0x3e0046ca	0.12527004
56	0xc21c6e2b	-39.107586
57	0x422235bd	40.55248
58	0xc03e6235	-2.974744
59	0xc0a143ef	-5.0395427
60	0xc0cb89f4	-6.36059
61	0x40946d2e	4.6383276
62	0x404c5cf1	3.1931727
63	0xc008fdd2	-2.140492
64	0xbfb3e852	-1.4055274
65	0xbfc466c6	-1.5343864
66	0x3faae925	1.33524
67	0xbf0fddea	-0.5619799
68	0xc14dbaca	-12.858103
69	0x417aa37f	15.664916
70	0x40e17bbf	7.0463557
71	0x418cdbbf	17.607298
72	0x3f1c1f6f	0.60985464
73	0xbdb47235	-0.08810846
74	0x3f81d125	1.0141951
75	0x401b0741	2.4223177
76	0x402234b5	2.534467
77	0xc02ef4e6	-2.7336974
78	0x3fa26b36	1.2688968
79	0x3f687a89	0.90811974
80	0xc1b3fc9a	-22.49834
81	0x419467f7	18.550764
82	0x41591927	13.568641
83	0x41724a0c	15.143078
84	0x4009506b	2.1455333
85	0x3fb06552	1.378092
86	0x4037d608	2.8724384
87	0x3f9e71d2	1.2378485
88	0x3f75a6ff	0.9595794
89	0x401a02fa	2.4064317
90	0xbf9ac8d5	-1.2092539
91	0x40303318	2.7531185
92	0xc1f72e81	-30.897707
93	0x41f1c950	30.223297
94	0x411f8d11	9.97194
95	0x40e6b7b3	7.209924
96	0xbe5d64d4	-0.21620494
97	0xbfb336e3	-1.4001125
98	0xc01cc0cf	-2.449268
99	0x3c476af9	0.0121715
100	0xbf2425bb	-0.6412007
101	0x3edbee5a	0.42955285
102	0xbe961924	-0.29316056
103	0xbf3c19df	-0.73476976
104	0x408d9f73	4.425714
105	0xc0963b42	-4.6947336
106	0xc0e2899e	-7.079299
107	0xc10f0119	-8.937768
108	0xbf7c7288	-0.9861226
109	0xbf18a1c5	-0.5962184
110	0xc03417b3	-2.8139465
111	0xbef72ab2	-0.4827476
112	0xbebfd78f	-0.37469146
113	0xbebfaaa0	-0.37434864
114	0x3d7909b7	0.06080028
115	0xbf42b5d1	-0.7605868
116	0x41a8c7d7	21.097578
117	0xc1a9e21e	-21.235409
118	0xc107089e	-8.439604
119	0xc0da70b2	-6.8262568
120	0x3e0a9c20	0.1353612
121	0x3f9de5e9	1.2335788
122	0x3f941f38	1.1572027
123	0x3d07ef86	0.03318741
124	0x3d677f36	0.056517802
125	0x3e11df96	0.14245448
126	0xbee6cd57	-0.45078537
127	0x3ea700ca	0.3261779
128	0xc1410f17	-12.066184
129	0x4165947c	14.348751
130	0x40de70b3	6.951257
131	0x41106b0e	9.026136
132	0xbe82a412	-0.255158
133	0x3f016a4a	0.5055281
134	0x4024cc2b	2.5749614
135	0x3d0fb5d3	0.03508551
136	0x3f714308	0.94242907
137	0x3efb661a	0.49101335
138	0xbd85ded0	-0.06536639
139	0x3d90bb65	0.07066993
140	0xc196a288	-18.829361
141	0x41850001	16.625002
142	0x415adb4c	13.678539
143	0x4119988b	9.599742

bias f4 [12]
0	0x40120abf	2.281906
1	0x41a1942d	20.197351
2	0x404d7cba	3.2107377
3	0x40102de8	2.252802
4	0x3f764187	0.96193737
5	0x4056dbc1	3.3571627
6	0x415ab5cc	13.669384
7	0x40229b4c	2.5407286
8	0xc02baff1	-2.6826136
9	0x431a99db	154.601
10	0xc03f402d	-2.988292
11	0x42c40664	98.01248

weight f4 [12, 12]
0	0x4212b8f3	36.680614
1	0x3ef5887e	0.47955698
2	0x404609ff	3.09436
3	0x3f991420	1.1959267
4	0xbe885152	-0.26624542
5	0xc001362f	-2.018932
6	0x3e71cfb5	0.2361439
7	0xc03e08cd	-2.9692872
8	0xbf978ff3	-1.1840805
9	0xbf48083c	-0.78137565
10	0x401a46a9	2.4105628
11	0xc0660916	-3.5943046
12	0x3bae318e	0.005315966
13	0x3eb32eca	0.34996635
14	0x40f12998	7.5363274
15	0x3e63f208	0.22260296
16	0x3f899e8b	1.0751508
17	0x3eca657f	0.3953056
18	0xbec839cf	-0.39106604
19	0xbfcc8b38	-1.5979986
20	0xc16ba80d	-14.728528
21	0xc1498edf	-12.597381
22	0x4184246e	16.517788
23	0x41166d4f	9.401687
24	0x3eca3519	0.39493635
25	0xbf731dc4	-0.94967294
26	0xc1001d6b	-8.007182
27	0xbf4983b9	-0.7871662
28	0xbe5777e0	-0.21041822
29	0x3f02c347	0.5107922
30	0xbf2fe4ed	-0.6870869
31	0x3f8401e2	1.0313075
32	0x411a310a	9.636972
33	0x41914066	18.156445
34	0xc1b43e14	-22.530312
35	0xc130411f	-11.015899
36	0x3e0f2b7b	0.1398143
37	0xbecf78e7	-0.4052193
38	0x3fb2f3ad	1.3980614
39	0x41f1ed42	30.240849
40	0x3f4afdc1	0.7929345
41	0x3f1eced3	0.6203434
42	0x3f1d4b72	0.61443245
43	0xbfc11d92	-1.5087149
44	0xbeb06634	-0.34452975
45	0xc089c3a2	-4.305131
46	0x40bda78c	5.9267025
47	0x3fffb7b7	1.997794
48	0x3fa66f64	1.3002744
49	0x403985d5	2.8987935
50	0x40d8c9b8	6.774624
51	0x4022d732	2.5443845
52	0x41cd9807	25.699232
53	0xbfd24834	-1.6428285
54	0x3fb93300	1.4468689
55	0xc05895dc	-3.3841467
56	0xc1f03b64	-30.029
57	0xc18e654e	-17.799465
58	0x41969de9	18.827105
59	0x419e9024	19.820381
60	0x4103448e	8.204237
61	0x40709bfd	3.7595208
62	0xc08d7da5	-4.4215875
63	0x3ccfa4bc	0.025347106
64	0x40f0d46e	7.5259314
65	0x4122cbe4	10.174778
66	0xc092b80f	-4.584968
67	0xbd7ee340	-0.06222844
68	0xc191d9f2	-18.231419
69	0xc08e40d7	-4.445415
70	0xc09ea425	-4.957537
71	0xbfb90a5d	-1.4456288
72	0xbf9b5494	-1.2135186
73	0x3e7f1775	0.24911292
74	0xbea04bb4	-0.31307757
75	0x3ff3fb10	1.9060993
76	0xbf34549c	-0.70441604
77	0x3f936de1	1.1517907
78	0x4208f0be	34.2351
79	0xbf707211	-0.9392405
80	0xbea77f31	-0.32714227
81	0x400de9bf	2.2173917
82	0xbff21ad1	-1.8914434
83	0x3f89de86	1.0771034
84	0xbeb6c2b1	-0.35695413
85	0xbe74cff4	-0.23907453
86	0x3fe28208	1.7695932
87	0x3f2191c5	0.6311305
88	0xbf3a1f96	-0.72704446
89	0x3ec91739	0.3927553
90	0xbf193fbf	-0.59862894
91	0xc1e190d4	-28.195717
92	0xbfd7232c	-1.6807609
93	0x40836548	4.1061134
94	0xc098f24c	-4.7795773
95	0xc0dc0b81	-6.8764043
96	0x3fcafd88	1.5858622
97	0x405968b5	3.3970158
98	0x40343eea	2.81634
99	0x3f9a1023	1.2036175
100	0x3f4333e6	0.76251066
101	0xbf8e1459	-1.109996
102	0x3f90f5df	1.1325034
103	0xbee1e47c	-0.44119632
104	0xc2194d99	-38.32578
105	0xc2182b93	-38.042553
106	0x4225331f	41.299923
107	0x425716ea	53.772377
108	0xbe15679d	-0.14590307
109	0x3fc70f51	1.5551549
110	0x4083d343	4.119539
111	0xbeb6a44f	-0.35672233
112	0x3ef81e00	0.48460388
113	0x3e876344	0.2644292
114	0xbe62f2c0	-0.22162914
115	0xbf11eddd	-0.57003576
116	0xc155d0ec	-13.363506
117	0xc085f3a0	-4.1859894
118	0x411dab13	9.854266
119	0x40f0064d	7.500769
120	0xbebc79ea	-0.36811763
121	0xbff67bda	-1.9256546
122	0xc0b89da6	-5.769244
123	0xbfb86b68	-1.4407778
124	0xbf748d4a	-0.9552809
125	0xbcde7420	-0.027154982
126	0x3f78fbdf	0.97259325
127	0x3ff70fe6	1.9301727
128	0x41a4383c	20.527458
129	0x42453afb	49.3076
130	0xc2386e70	-46.10785
131	0xc26980f9	-58.37595
132	0x3e706be5	0.23478658
133	0x408a7655	4.326945
134	0x40a32f39	5.0995145
135	0x3e46528a	0.19367424
136	0x3f21b2a2	0.631632
137	0xbf051849	-0.5199018
138	0x3f099392	0.537408
139	0xbd9e9d1f	-0.07744812
140	0xc23b5e0f	-46.841854
141	0xc1cf7d5b	-25.936209
142	0x41dc731b	27.556204
143	0x4203c822	32.945442

bias f4 [12]
0	0x420b6220	34.845825
1	0x41e4ccc6	28.599987
2	0xc03f2a3a	-2.9869523
3	0x41c3e4a7	24.486647
4	0x3f235624	0.63803315
5	0x40c7f25a	6.248334
6	0x41d98914	27.191933
7	0xbfe87fa3	-1.8163952
8	0x4084918c	4.142767
9	0xc0348da9	-2.8211462
10	0x407945d9	3.8948882
11	0x400b87bf	2.1801603

weight f4 [12, 12]
0	0xc0560dfd	-3.3446038
1	0xbfbcc26c	-1.4746833
2	0x3fa20d7e	1.2660367
3	0xbfab0d05	-1.3363348
4	0xbf2b60c5	-0.66944534
5	0xbf9a5efc	-1.2060237
6	0x3e01661d	0.1263661
7	0x3f8feb8f	1.1243762
8	0xc0edeb1b	-7.4349494
9	0xc164a486	-14.290167
10	0x4190fd6d	18.123743
11	0x41572745	13.447087
12	0xbebeb91b	-0.372506
13	0xbe8a2d26	-0.2698757
14	0xc1252db3	-10.323657
15	0xbe86d7d0	-0.26336527
16	0x3f50d174	0.815696
17	0xbeb19587	-0.34684393
18	0xbe28fd93	-0.16502981
19	0xc081da0c	-4.057867
20	0xc11e2a25	-9.885289
21	0xc1525714	-13.146259
22	0x417614b2	15.380053
23	0x411a680c	9.650402
24	0x3e8ff82e	0.28119034
25	0xbf3522bf	-0.70756143
26	0xc102e529	-8.180947
27	0xbeeb4ab2	-0.45955426
28	0x3ec4ff90	0.3847623
29	0xbc9b8cca	-0.018988032
30	0x3eaa5ab8	0.33272338
31	0xbf9b77eb	-1.2145971
32	0xc1938bb1	-18.443209
33	0xc168eca5	-14.557775
34	0x411c9af3	9.787829
35	0x41344235	11.266164
36	0x3e0f923b	0.14020626
37	0x3fffcca9	1.9984332
38	0x4010426e	2.2540545
39	0x404761e5	3.11535
40	0xbe66402e	-0.2248542
41	0xbfaee371	-1.366316
42	0xbf0e5fba	-0.5561482
43	0x3f25863a	0.6465794
44	0x40a6f400	5.217285
45	0x41b3331b	22.399954
46	0xc206afec	-33.6718
47	0xc187aac1	-16.958376
48	0xbf78eac0	-0.972332
49	0xbfd1d045	-1.6391684
50	0xc05b1745	-3.4232953
51	0x3fc903ca	1.5704281
52	0x4100f578	8.059929
53	0xbf55e76c	-0.83556247
54	0x3fb1f3a5	1.390248
55	0xc07ee652	-3.9828076
56	0xc22c96c5	-43.147236
57	0xc1ac679b	-21.550589
58	0x41654237	14.328666
59	0x42027e6a	32.62345
60	0x3f1d937b	0.6155316
61	0xbeb5ad64	-0.3548385
62	0xbe18676a	-0.148832
63	0xbeaeba13	-0.34126338
64	0x3d8807d0	0.06642115
65	0x3eb7be22	0.35887247
66	0xbe7be5ae	-0.24599335
67	0xbf1600f2	-0.5859519
68	0xc0ea4cd4	-7.3218784
69	0xc15e3c7f	-13.88977
70	0x4195871c	18.690971
71	0x41832e67	16.397657
72	0xbccb7db8	-0.02484022
73	0x3ffae601	1.9601442
74	0x3ff6596e	1.9246042
75	0x3e3a52fc	0.18195719
76	0xc0257d6a	-2.5857797
77	0x3f5996b2	0.8499557
78	0xc072dbc7	-3.7946641
79	0x4000110e	2.001041
80	0x40a9f318	5.3109245
81	0x41ae6370	21.798553
82	0xc1fa904d	-31.32046
83	0xc19d53c0	-19.665894
84	0x3f411476	0.75421846
85	0x400f7163	2.2412956
86	0xbf8c138c	-1.0943465
87	0xbef77a5b	-0.48335537
88	0x3f9aa99c	1.2083011
89	0xc029148d	-2.6418793
90	0xbf11bd6e	-0.5692967
91	0x4076478b	3.8481166
92	0x4108430f	8.516372
93	0x41b9dfdf	23.234312
94	0xc1fdb3cb	-31.71279
95	0xc1b8b1aa	-23.08675
96	0x3f7a1982	0.9769517
97	0x3f9a9c51	1.2078954
98	0x40b900f7	5.781368
99	0x3d88585e	0.0665748
100	0xbfb80b4b	-1.4378446
101	0xbe95a20f	-0.29225203
102	0xbe5ea5c6	-0.21742925
103	0x3f4201d1	0.7578402
104	0x40895232	4.2912836
105	0x419a6a10	19.301788
106	0xc1b7930d	-22.946802
107	0xc1042203	-8.258304
108	0x3fb5cfa0	1.4203987
109	0xc067a599	-3.6194823
110	0xc18013f3	-16.00974
111	0xbe530a3a	-0.2060937
112	0x3f9eaba5	1.2396132
113	0xbf7567b4	-0.95861363
114	0x4077cafb	3.871764
115	0xc019bbc8	-2.4020863
116	0xc2d92408	-108.57037
117	0xc21b4259	-38.814793
118	0x423c2099	47.031834
119	0x42885c22	68.17995
120	0x3f8e59bc	1.1121135
121	0x406caae8	3.6979313
122	0x3fe4ee62	1.7885249
123	0x3f401ad1	0.7504092
124	0xbfb36c25	-1.4017378
125	0x3f2879e7	0.6581101
126	0x3c0cd030	0.008594558
127	0x3f6964d6	0.9116949
128	0x4184bb7b	16.591543
129	0x425c609b	55.09434
130	0xc2889f2f	-68.310905
131	0xc24c0274	-51.002396
132	0x3f68c5fe	0.9092711
133	0xc06905e8	-3.6409855
134	0xc1d0ee55	-26.116373
135	0xbf422b11	-0.75846964
136	0x40827846	4.077182
137	0xbf4da358	-0.8032737
138	0x3ff13e77	1.8847188
139	0xc0961c26	-4.690936
140	0xc2a9188e	-84.54796
141	0xc1d2a93d	-26.332636
142	0x419be6ca	19.48769
143	0x424b7d7d	50.872547

bias f4 [12]
0	0x4267da23	57.963024
1	0x41acd62d	21.604578
2	0xc03575a1	-2.8353045
3	0x3fa3f337	1.2808598
4	0x400d5e05	2.2088635
5	0x4232def2	44.71772
6	0x3ff3ad08	1.903718
7	0x3fd62a23	1.6731609
8	0xc04146c0	-3.0199432
9	0x409f7e0c	4.9841366
10	0x402cd18d	2.70029
11	0x406b5ea3	3.6776512

weight f4 [12, 12]
0	0xc13fd64e	-11.9898205
1	0xbe9ca116	-0.3059165
2	0x40a001e3	5.0002303
3	0x4050efec	3.2646437
4	0xc01a42fa	-2.410338
5	0x404d9f31	3.2128413
6	0x3fdffec4	1.7499623
7	0xbff2c9ea	-1.8967869
8	0xc18661a0	-16.797668
9	0x41ab69f3	21.426733
10	0x419950b6	19.16441
11	0x4132d4d4	11.17696
12	0x416903d6	14.5634365
13	0x3ee5a7a5	0.44854465
14	0xc0b06eba	-5.5135164
15	0xc0b6ca09	-5.7121625
16	0x40e3248c	7.0982113
17	0xc173bf43	-15.234195
18	0xc094e368	-4.6527596
19	0x40924140	4.570465
20	0x41521d63	13.1321745
21	0xc193b11a	-18.461475
22	0xc1939a79	-18.450426
23	0xbef7ffb6	-0.4843728
24	0xc03a6afc	-2.9127798
25	0xbf5c7cbb	-0.86127824
26	0x4139d0eb	11.613505
27	0x3ff9ddf9	1.9520866
28	0xc0543786	-3.315889
29	0x40407953	3.007405
30	0x4013864b	2.3050716
31	0xc0169fbb	-2.3534992
32	0xc184a3ed	-16.580042
33	0x41447be1	12.280244
34	0x41c9f8dc	25.246513
35	0x40f1a644	7.551546
36	0xc05bf64f	-3.4369085
37	0xbe7b5a41	-0.24546148
38	0x405fda4b	3.4976985
39	0x4165bbc0	14.358337
40	0xc04fc7de	-3.246574
41	0x3f848eab	1.0356039
42	0x4054597e	3.3179622
43	0xc05d30f6	-3.4561133
44	0xc148d88e	-12.55287
45	0x416ec5ef	14.923324
46	0x41abab3c	21.45861
47	0x413526b6	11.321951
48	0xc0c6e7ac	-6.2157803
49	0x3da02205	0.07818989
50	0x409a1933	4.815576
51	0x40ebc529	7.3678174
52	0xc1175340	-9.457825
53	0x40dc1245	6.87723
54	0x40cd7270	6.4202194
55	0xc0f3a762	-7.6141825
56	0xc0f6e1c4	-7.7150593
57	0x410f48f4	8.955311
58	0x410b1acf	8.694045
59	0xc192a1a9	-18.328936
60	0xbf6b894e	-0.92006385
61	0xbe09fe1d	-0.13475843
62	0x3e2bdc56	0.1678327
63	0x3f9b8c3a	1.2152169
64	0xbf6ca120	-0.9243336
65	0x4148bd37	12.546195
66	0x3f9f3694	1.2438531
67	0x3e7efd12	0.24901226
68	0xc11efae5	-9.936254
69	0x41692074	14.570423
70	0x4186b709	16.839373
71	0x41870fcd	16.882715
72	0x3ea35700	0.31902313
73	0xbe90bf1e	-0.2827081
74	0x3ecda3c2	0.40164
75	0x3e27e33f	0.16395281
76	0xbf2b7139	-0.6696964
77	0xbf21caad	-0.63199884
78	0x412c76a4	10.778965
79	0xbf486ec4	-0.78294015
80	0xc15fac2b	-13.979533
81	0x4131974a	11.099436
82	0x418bff65	17.499704
83	0x4131aad1	11.104203
84	0xbf826626	-1.0187423
85	0xbf63cbca	-0.8898283
86	0x3fb0b5cf	1.3805484
87	0x3e27bba3	0.16380171
88	0x4075456e	3.8323627
89	0xbfa519fe	-1.2898557
90	0xbffa9a51	-1.9578344
91	0xc0bcf722	-5.9051676
92	0xc139909e	-11.597807
93	0x41466aad	12.401044
94	0x419d1730	19.636322
95	0x41c1b3f9	24.212877
96	0xbf7c1402	-0.9846803
97	0xc05f786f	-3.4917257
98	0x40d476e2	6.639512
99	0x3f8c8831	1.0979062
100	0x3f88f917	1.0701016
101	0x3f4bcf4a	0.79613173
102	0xbe91075f	-0.28325936
103	0x40842908	4.1300087
104	0xc268e461	-58.223026
105	0x42b9a517	92.82244
106	0x418ec3d8	17.845627
107	0x421c3933	39.05586
108	0xbeff26bd	-0.49834242
109	0xbf3012aa	-0.6877848
110	0x4125012e	10.312788
111	0x3ef8aaa4	0.48567688
112	0x3fae6808	1.3625498
113	0x3f82b575	1.0211626
114	0x3f60bd01	0.877884
115	0x3fb2e200	1.397522
116	0xc16ab787	-14.6698065
117	0x40ebe768	7.371998
118	0x41cdfd6d	25.748743
119	0x4136aab1	11.416673
120	0xbe965181	-0.29359058
121	0xbf628572	-0.8848487
122	0x40f478ea	7.63976
123	0x3ec4b324	0.38417923
124	0x3f8cda4a	1.1004117
125	0xbe11773e	-0.14205644
126	0x3e1f49b9	0.15555467
127	0x3fab1837	1.3366765
128	0xc154dd5c	-13.304043
129	0x413b0bbf	11.690368
130	0x417ff301	15.996827
131	0x412b74b3	10.715991
132	0x3f278019	0.65429837
133	0xbf25bb54	-0.64738965
134	0x40c05c09	6.0112348
135	0xbfc7a867	-1.5598267
136	0x40240d67	2.563318
137	0xbfc1d707	-1.5143746
138	0xbfb77830	-1.4333553
139	0x40782b3e	3.8776393
140	0xc13419a5	-11.256261
141	0x41256a81	10.338502
142	0x4174a184	15.289433
143	0x4169ab74	14.604359

bias f4 [12]
0	0x417bf9a6	15.748449
1	0xc18e343e	-17.775509
2	0x4179f35d	15.621915
3	0x41768f97	15.410056
4	0x40a93896	5.2881575
5	0x41729077	15.16027
6	0x416a8c8e	14.659315
7	0x4180c89d	16.097956
8	0x406c821d	3.6954415
9	0x4180a6ca	16.08144
10	0x4181ef6b	16.241903
11	0x417a0cf1	15.6281595

weight f4 [12]
0	0x39d853a2	0.00041261042
1	0xbe7dd515	-0.24788316
2	0xbc732d42	-0.014842333
3	0xbbd81e2f	-0.006595395
4	0x3c21cbc5	0.009875243
5	0xbac95025	-0.0015358968
6	0x3b101cf4	0.0021989914
7	0xbca6849f	-0.02032691
8	0xbc850986	-0.016239893
9	0x3c9eb9e5	0.01937575
10	0xbc627407	-0.013821608
11	0x3cb114c7	0.021616353

bias f4 [12]
0	0x3d0fa2e7	0.035067465
1	0xbd10e47c	-0.03537415
2	0x3c7bb470	0.015362844
3	0x3d179e26	0.037016056
4	0x3d25d316	0.04048451
5	0xbd023102	-0.03178502
6	0x3d22044d	0.039554883
7	0xbd26304c	-0.040573403
8	0x3ba8e92f	0.005154751
9	0xbb803d7e	-0.0039135804
10	0xbb125466	-0.0022328137
11	0x3b8633f5	0.004095549

running_mean f4 [12]
0	0x41913d29	18.154863
1	0x4185428a	16.65749
2	0x40a5b26d	5.1780305
3	0x41387f3f	11.531066
4	0x40112b4b	2.2682674
5	0x4145779c	12.3417015
6	0x414907c1	12.564393
7	0x409e41f2	4.94555
8	0x4181ddd6	16.233318
9	0x41aabcd8	21.342209
10	0x41640930	14.252243
11	0x41a71fdb	20.890554

running_var f4 [12]
0	0x4159b70e	13.607191
1	0x41b97a48	23.184708
2	0x414ec5b3	12.923266
3	0x4146a85f	12.416106
4	0x409abc50	4.8354874
5	0x41681d96	14.507223
6	0x415c9aef	13.787826
7	0x415254ac	13.145672
8	0x409b9e5b	4.8630805
9	0x40ae9410	5.455574
10	0x41123fe8	9.140602
11	0x418d0083	17.62525

weight f4 [39, 12]
0	0x3fb54de4	1.4164395
1	0xbfc263fc	-1.5186763
2	0x3fad038a	1.3516705
3	0x3fb940be	1.4472883
4	0x3fbc5ed9	1.4716445
5	0xbfba1bfa	-1.4539788
6	0x3fb66be0	1.4251671
7	0xbfb305f3	-1.398619
8	0x3fa56655	1.2921854
9	0xbfae9fa8	-1.3642473
10	0x3f9b2c09	1.2122813
11	0x3f9e16bf	1.2350692
12	0x39c772d6	0.00038041797
13	0xb58058b8	-9.562564e-07
14	0xb9d37b44	-0.00040336896
15	0xb4117ff6	-1.3550729e-07
16	0xb90068d9	-0.0001224609
17	0x3948e860	0.00019160053
18	0x389df5d2	7.532131e-05
19	0x38d61bd1	0.000102094964
20	0xb983151c	-0.00025001995
21	0xb9a568ce	-0.00031549338
22	0x37d2f1df	2.514658e-05
23	0xb93d6a01	-0.00018063934
24	0x38a4f13b	7.865062e-05
25	0x37688479	1.3859121e-05
26	0x383416cf	4.2936586e-05
27	0xb7da40cf	-2.6017804e-05
28	0x38466b84	4.730701e-05
29	0xb7c84f43	-2.3878767e-05
30	0xb890e1c3	-6.9085065e-05
31	0x382d2fd3	4.1290954e-05
32	0xb799eba3	-1.8348748e-05
33	0xb679338e	-3.71339e-06
34	0x3903b5f3	0.00012560915
35	0xb910829a	-0.00013781563
36	0x3d7a3f15	0.061095316
37	0xbdf14fa8	-0.11782771
38	0x3d33560b	0.04378323
39	0x3dabe003	0.08392336
40	0x3df64f1f	0.1202681
41	0xbdc5f1be	-0.09665249
42	0x3dbf113a	0.093294576
43	0xbdc179ca	-0.094470575
44	0x3d57ee1f	0.052717324
45	0xbd92a154	-0.07159677
46	0x3c5984b9	0.013276272
47	0x3e230561	0.1592002
48	0xbfce4d0b	-1.6117262
49	0x3fd52202	1.6651003
50	0xbfc752c5	-1.5572134
51	0xbfce9cf3	-1.6141647
52	0xbfcd0a3b	-1.6018747
53	0x3fce52c6	1.611901
54	0xbfc9ee84	-1.5775914
55	0x3fc7b067	1.5600709
56	0xbfb82ae3	-1.4388088
57	0x3fc19de4	1.5126309
58	0xbfb41c4b	-1.4071134
59	0xbfa4fc34	-1.2889466
60	0x3948610b	0.00019109638
61	0xba32e0e9	-0.00068236754
62	0xba97de46	-0.0011586628
63	0xb950ebae	-0.00019924223
64	0xb7e3ef08	-2.7171816e-05
65	0x382345e0	3.8927305e-05
66	0x3848eabd	4.7902333e-05
67	0x39347855	0.00017210965
68	0x381b12d4	3.6972415e-05
69	0xba6a4b2e	-0.0008937594
70	0xb9e7de30	-0.00044225296
71	0xba91c77b	-0.0011122072
72	0x3fa917f4	1.3210435
73	0xbfb5ef95	-1.421374
74	0x3fa0deef	1.2568034
75	0x3fad29bf	1.3528365
76	0x3fb01dfb	1.3759149
77	0xbfad74a8	-1.3551226
78	0x3faa7bda	1.3319046
79	0xbfa74c73	-1.3070205
80	0x3f9b1180	1.2114716
81	0xbfa36e6c	-1.2768073
82	0x3f90f230	1.132391
83	0x3f9313a8	1.1490374
84	0xc0478a3e	-3.1178126
85	0x404d60c9	3.2090323
86	0xc03febbb	-2.9987628
87	0xc048f3bb	-3.1398761
88	0xc046079d	-3.0942147
89	0x4047707c	3.1162405
90	0xc0434af9	-3.051451
91	0x403f8b92	2.9928937
92	0xc035111b	-2.829169
93	0x403d500b	2.9580104
94	0xc030ef15	-2.7645924
95	0xc01dedda	-2.4676423
96	0xbb1aa3a8	-0.0023596082
97	0xb88f05d9	-6.8198606e-05
98	0xbac6fa06	-0.0015180714
99	0xbaa18432	-0.0012322722
100	0xb9dfe29f	-0.0004270272
101	0x3b21b689	0.002467545
102	0xbaa48171	-0.0012550784
103	0xb9a5b585	-0.00031606495
104	0x3aab7f08	0.0013084123
105	0xb7ddc0a1	-2.6434953e-05
106	0x3a69bb95	0.00089161965
107	0x39bd8228	0.00036145863
108	0x3e7673a7	0.24067555
109	0xbe9795f9	-0.29606608
110	0x3e5d9192	0.21637562
111	0x3e8669cd	0.26252595
112	0x3e95117e	0.29114908
113	0xbe8ad12a	-0.27112705
114	0x3e8745f0	0.26420546
115	0xbe863a79	-0.26216486
116	0x3e537d02	0.20653155
117	0xbe6d45c4	-0.23171145
118	0x3e269449	0.16267504
119	0x3e981c44	0.29709065
120	0xc08d16dd	-4.409041
121	0x4091a845	4.5517907
122	0xc087b150	-4.2403946
123	0xc08de524	-4.4342213
124	0xc08c0d46	-4.3766203
125	0x408c9657	4.393352
126	0xc08a74eb	-4.326772
127	0x4087e104	4.2462177
128	0xc08136e5	-4.037951
129	0x4086da5d	4.2141557
130	0xc07add51	-3.919758
131	0xc05d7dbd	-3.4607995
132	0xba618517	-0.0008602901
133	0x3ae23842	0.0017259198
134	0xb9477e12	-0.00019025084
135	0xbaac8bf5	-0.0013164269
136	0xbb0bcf21	-0.0021333175
137	0xb8b00eee	-8.395115e-05
138	0xba457c41	-0.0007533469
139	0x3b0c2a1d	0.0021387406
140	0xbb28b6bb	-0.0025743681
141	0x3b205245	0.00244631
142	0x3b520330	0.0032045357
143	0x39e27ce8	0.00043199142
144	0x3f87d1e5	1.061093
145	0xbf93c30c	-1.1543899
146	0x3f81514f	1.0102938
147	0x3f8bb324	1.0914044
148	0x3f8f94b6	1.1217258
149	0xbf8ca2a1	-1.098713
150	0x3f8a45db	1.0802568
151	0xbf875ed6	-1.0575817
152	0x3f7c045a	0.9844414
153	0xbf84e7c4	-1.0383229
154	0x3f679096	0.90454996
155	0x3f728440	0.9473305
156	0xc0ac35c2	-5.381562
157	0x40b241a7	5.570514
158	0xc0a69740	-5.205963
159	0xc0ad67c3	-5.418916
160	0xc0abe1d2	-5.371316
161	0x40ac4b81	5.384217
162	0xc0a966a5	-5.29378
163	0x40a59926	5.174945
164	0xc0a03bd9	-5.0073056
165	0x40a69eb4	5.206873
166	0xc09ba922	-4.864396
167	0xc0861580	-4.1901245
168	0x33444e99	4.570629e-08
169	0xb2937c2e	-1.7169523e-08
170	0xb226131c	-9.666817e-09
171	0xafae4791	-3.1701267e-10
172	0x3222f2be	9.484834e-09
173	0x3140a2df	2.8032259e-09
174	0x31e66f44	6.7065304e-09
175	0xb17d19e1	-3.6831056e-09
176	0x322c0684	1.0013199e-08
177	0xb2f98de8	-2.9051947e-08
178	0xb394e974	-6.934252e-08
179	0xb2acd608	-2.0120765e-08
180	0x3f0c558f	0.5481805
181	0xbf1b0916	-0.6056074
182	0x3f054312	0.52055466
183	0x3f10f951	0.56630427
184	0x3f16def2	0.5893394
185	0xbf128885	-0.5723956
186	0x3f0fa04c	0.5610397
187	0xbf0cebe0	-0.55047417
188	0x3effd07b	0.49963745
189	0xbf07d231	-0.530551
190	0x3ee7953b	0.4523104
191	0x3f03988e	0.51404655
192	0xc0bfa314	-5.988657
193	0x40c6eb2d	6.216208
194	0xc0ba2920	-5.81752
195	0xc0c1419f	-6.0392604
196	0xc0c0683f	-6.0127254
197	0x40c01a3c	6.0032024
198	0xc0bd2a2b	-5.9113975
199	0x40b8b18b	5.7716727
200	0xc0b57306	-5.670291
201	0x40bc52e8	5.8851204
202	0xc0ae6412	-5.4497156
203	0xc0943e4f	-4.632606
204	0xb9bdcdff	-0.00036202368
205	0xb9c747af	-0.00038009646
206	0xbb1ae689	-0.0023635945
207	0xb998fb1c	-0.0002917879
208	0x39da76e5	0.00041668784
209	0xb762c242	-1.3515879e-05
210	0xb9cdd0f6	-0.00039256335
211	0xba322bf6	-0.0006796712
212	0x3ae599c7	0.0017517143
213	0xbae89c27	-0.0017746732
214	0xbba88fae	-0.005144081
215	0xba5b8bf6	-0.0008375043
216	0x3f3646c3	0.71201724
217	0xbf4af273	-0.792762
218	0x3f26e02f	0.65185827
219	0x3f3c9d00	0.73677063
220	0x3f44a372	0.768119
221	0xbf3fa0c7	-0.748547
222	0x3f3bcc7b	0.7335889
223	0xbf39b1b1	-0.7253676
224	0x3f1e7000	0.6188965
225	0xbf297b2f	-0.6620359
226	0x3f0c1db7	0.5473284
227	0x3f34fb0c	0.7069557
228	0xc0c59a31	-6.175072
229	0x40ce4e01	6.447022
230	0xc0bdabf9	-5.9272428
231	0xc0c79ea3	-6.238115
232	0xc0c71e8f	-6.2224803
233	0x40c707f7	6.2197223
234	0xc0c3acc0	-6.1148376
235	0x40bfa556	5.9889326
236	0xc0b6fec0	-5.7185974
237	0x40be62ca	5.949559
238	0xc0af57e9	-5.479481
239	0xc09e5025	-4.9472833
240	0x36aa6464	5.078082e-06
241	0x351649de	5.5986845e-07
242	0x358a547e	1.0306392e-06
243	0x34cc3877	3.8039045e-07
244	0x3516d4ef	5.6189214e-07
245	0xb618a978	-2.2748409e-06
246	0x3620b094	2.394464e-06
247	0x349473b8	2.7651345e-07
248	0xb5ee5891	-1.7758158e-06
249	0xb60cd703	-2.098678e-06
250	0xb313bfb2	-3.440045e-08
251	0x34db48c8	4.0844884e-07
252	0x3f64f114	0.89430356
253	0xbf765c76	-0.96234834
254	0x3f5a8d8b	0.8537223
255	0x3f6a1a24	0.9144614

bias f4 [39]
0	0x402eeb11	2.7330973
1	0x38776a80	5.8988575e-05
2	0xb6a90ed3	-5.0383182e-06
3	0x3dc6a608	0.09699637
4	0xc05105ea	-3.265986
5	0xb7663525	-1.3721442e-05
6	0x4020b613	2.511113
7	0xc0c29da0	-6.0817413
8	0xba501909	-0.0007938301
9	0x3eec03e9	0.46096733
10	0xc108aabd	-8.541684
11	0xba8dded9	-0.001082386
12	0x40005853	2.005391
13	0xc1246134	-10.273731
14	0x31b1f2dc	5.178988e-09
15	0x3f84c03b	1.0371164
16	0xc1372d38	-11.44854
17	0xb9c22c64	-0.00037035637
18	0x3fae2588	1.3605204
19	0xc13c30f5	-11.761952
20	0x355e699a	8.2855115e-07
21	0x3fd7888d	1.6838547
22	0xc1372b4d	-11.4480715
23	0xb99f58a7	-0.00030392894
24	0x3f37bb65	0.71770316
25	0xc12462b1	-10.274095
26	0x37cba6d2	2.4277168e-05
27	0x4010c28c	2.2618742
28	0xc108adb4	-8.542408
29	0x38157bbd	3.563961e-05
30	0x3e5ad260	0.21369314
31	0xc0c286c7	-6.0789523
32	0x3a375c78	0.0006994675
33	0x40282eaf	2.6278493
34	0xc050c128	-3.2617893
35	0x36c5a1cf	5.8898945e-06
36	0x31ad728d	5.0479856e-09
37	0x379cf581	1.871097e-05
38	0xb59c1465	-1.1628841e-06
