examples/sudret_truss/model.pt (torch, 119460 bytes, 42 tensors)

weight f4 [37, 10]
000000 28 a2 6a be 20 fa 6d 3e b8 bc 8f be 71 e0 1e 3e
       -0.2291342 0.23239946 -0.28073668 0.15515305
000010 cf d8 cd 3d 48 6d 4b 3d 07 77 03 3c d8 2f 95 bd
       0.100511186 0.049664766 0.008023984 -0.07284516
000020 39 1d a4 bb 89 5a 9e 3e 15 8f 40 be e1 bf 23 3d
       -0.0050083664 0.30928448 -0.18804581 0.03997791
000030 df a7 9a be fd a4 9d 3e 35 6e 25 be 71 b9 1f be
       -0.302062 0.3078994 -0.16155322 -0.15598084
000040 c3 9f 98 be 8f de 33 be f6 68 1e bd 95 39 1d be
       -0.2980939 -0.17565368 -0.038674317 -0.15353997
000050 0c 3d f3 3d 37 59 df bd df 36 66 3e c9 20 7e 3e
       0.11876878 -0.10905688 0.22481869 0.24817194
000060 1b e7 64 3e d0 67 95 3e 2e df 82 be bc e0 46 3e
       0.22353785 0.29180765 -0.25560898 0.19421667
000070 90 a6 80 be 13 b4 07 be f0 75 bb 3d 4e 60 b3 3e
       -0.25127077 -0.13252287 0.09153354 0.35034412
000080 e7 7a 12 3e cc 86 6e 3d be 98 7b be 93 d0 96 be
       0.14304696 0.05823402 -0.24569985 -0.29456005
000090 59 6c 9b 37 5a 96 80 be 58 a3 f2 3c 90 42 b6 3e
       1.8527893e-05 -0.2511471 0.029618904 0.35597658
0000a0 a7 0f 13 be a5 c6 9f 3e 51 27 43 3e 33 66 87 be
       -0.1436144 0.3120624 0.19057967 -0.2644516
0000b0 9b 0f db 3d d7 70 a9 3c b1 05 60 3e c1 32 4d 3e
       0.10696336 0.020683689 0.21877171 0.20038892
0000c0 77 12 26 3d 36 b1 a0 3e 12 5c 8e 3e 7e 0f 99 bd
       0.040544953 0.313852 0.2780462 -0.07473658
0000d0 bb 86 62 3c 8d 33 43 be a7 da 9b 3e 30 7a 31 3e
       0.013826068 -0.19062634 0.30440256 0.17331767
0000e0 de 63 78 3e 7d 1c 66 be e7 eb 94 3e 48 2b 83 bc
       0.24256846 -0.22471805 0.2908623 -0.016011849
0000f0 8a 36 90 3e f2 77 4c be 97 a0 60 3d 4c 6e 9d be
       0.2816661 -0.1996763 0.05484065 -0.30748212
000100 31 a4 b2 be a7 70 25 3d 2d 98 10 3e a8 80 b3 be
       -0.34890893 0.040390637 0.1412055 -0.35059094
000110 37 2c 08 be 06 cc e1 bd a0 d9 80 3e ec 68 89 3d
       -0.13298117 -0.110252425 0.25166035 0.067094654
000120 0a 19 85 3e 73 f0 77 be 8e 51 c4 3d 7d 80 66 bc
       0.25995666 -0.24212818 0.09585868 -0.01406872
000130 51 b9 03 be 40 1d 27 3e 97 02 49 3e 80 b4 8d 3d
       -0.12863661 0.16319752 0.19629894 0.06919193
000140 17 89 9e 3e 43 96 3b be 35 65 c4 bd d3 17 8d 3d
       0.30963966 -0.18319039 -0.09589616 0.0688931
000150 c1 92 19 bd 28 7e b1 3e b8 9b ac 3c 28 b9 99 3e
       -0.03749347 0.34666562 0.021070346 0.30024076
000160 35 2b 8a 3e a3 b6 0a be c8 9d aa be ac b6 91 3e
       0.2698609 -0.13546233 -0.33323503 0.2845968
000170 ff 8a 61 be cc a7 7e be 55 f4 4e 3e ae bc 9e be
       -0.22025679 -0.24868697 0.20210393 -0.31003326
000180 70 1a ad 3e ab 39 ae be c7 07 93 3d e5 d5 87 3d
       0.33809233 -0.34028372 0.07179218 0.06632594
000190 31 b4 c4 bd c5 32 92 be 2c db 8b be 8f fc 7b be
       -0.09604681 -0.2855436 -0.27315652 -0.24608062
0001a0 f1 ae 2f 3e 58 1d 1d 3e 35 ea ad be 37 d6 2c be
       0.17156579 0.15343225 -0.33967748 -0.16878591
0001b0 77 8c 3d be 81 71 6e 3e 67 90 56 bd 9d b0 b0 be
       -0.18510614 0.23285486 -0.052383807 -0.34509745
0001c0 c6 01 fb 3d 30 13 8b be 6f 7d 8e 3d d7 c6 33 be
       0.12256198 -0.27163076 0.06957518 -0.1755632
0001d0 41 7e 13 3e 18 ed a0 be 4c f0 58 3d 0f be 0e be
       0.14403631 -0.31430888 0.05296354 -0.13939689
0001e0 2c 33 9e be e9 4a 56 3d 23 ce 55 be 23 cd 58 be
       -0.30898416 0.052317534 -0.20879416 -0.21172003
0001f0 33 2d b4 3e ec fe a5 be b5 9b 73 be d6 38 5f 3c
       0.35190734 -0.32421052 -0.23789866 0.013624391
000200 20 dc 62 bb cf 7d 8c 3e b8 17 93 be 13 0f 0e bc
       -0.0034616068 0.27439734 -0.28729033 -0.008670586
000210 49 82 ed bc 93 50 87 3e 93 47 90 be ed 3c 20 bd
       -0.028992789 0.2642866 -0.28179607 -0.039120603
000220 a4 b5 b7 3d 25 a6 3e 3e 73 7b b1 3e 29 ba 95 3d
       0.08970192 0.18618067 0.34664497 0.07310898
000230 a3 14 ab 3e c2 2d 95 3e 37 37 17 be e9 21 89 be
       0.33414182 0.29136473 -0.14767157 -0.26783684
000240 0c 0a 9b 3d 85 42 e7 bd 6c 77 68 3e e2 b7 1a be
       0.07570276 -0.112919845 0.22701806 -0.15109208
000250 23 80 51 3e 31 12 24 3e 3e 5a d1 3d 73 0e b6 be
       0.20459037 0.16022564 0.102222905 -0.355579
000260 ff 59 51 3e 9e c6 12 3e f8 08 e5 bc 84 5b aa bd
       0.20444487 0.14333579 -0.027958378 -0.083182365
000270 59 9c 9d be bb 5e 77 3e 70 2d 59 3d f1 72 a4 3e
       -0.30783346 0.2415723 0.05302185 0.32118943
000280 20 dd 73 be a9 04 b1 be d4 a7 b2 3e c3 12 84 be
       -0.23814821 -0.34573868 0.34893668 -0.25795564
000290 0d d0 1e 3e 40 63 49 be 80 71 3e be ab 5b 2f be
       0.15509053 -0.19666767 -0.18597984 -0.17124812
0002a0 66 86 b3 3e ed 3d 2a bc 21 23 aa be 5d 01 96 be
       0.35063475 -0.010390741 -0.33229926 -0.29297915
0002b0 2e 7e 21 3e 2f 35 44 be e0 6a 36 be e4 c8 22 3e
       0.1577079 -0.19160913 -0.17814207 0.15896946
0002c0 0e 43 9c 3e a6 fd 6b 3e 58 37 d5 bd e8 89 92 be
       0.3051991 0.23045978 -0.104109466 -0.2862084
0002d0 5e 32 0e be 7c a8 a3 3e 70 45 e3 bd 38 52 b3 bc
       -0.13886401 0.3196448 -0.110972285 -0.02188979
0002e0 71 b2 73 3d da 1a 07 bb 47 1a b1 3e 18 fb 1f bd
       0.059496347 -0.002061537 0.3459036 -0.03905782
0002f0 1c 8d 02 3e 2f 97 1d 3d 15 67 b7 bd 7a 28 57 bd
       0.12749141 0.038474258 -0.08955208 -0.052528836
000300 a0 03 67 be fd 4a 85 be 12 bd 0b 3d ce 31 8c 3e
       -0.22559977 -0.26033774 0.03411586 0.27381748
000310 96 6e 2a be a2 33 3e be 8c 32 30 bd cd 59 86 3d
       -0.16643748 -0.18574384 -0.043016955 0.06560097
000320 41 c8 44 3e ab 96 f7 3c c6 e9 b6 be 14 42 b5 bd
       0.19217016 0.030223211 -0.3572523 -0.08850494
000330 76 27 8c 3e 88 5b 8a be 1a 9d 86 be a7 cb 0c be
       0.27373856 -0.27022958 -0.26291734 -0.13749562
000340 1c 28 1e bd 86 fd 08 be d4 50 2a 3e ff 70 2a be
       -0.03861247 -0.13377962 0.16632396 -0.16644667
000350 83 79 76 be 89 6b 1b be 8f e0 8f 3e 3a 94 7f be
       -0.2406979 -0.1517774 0.28101012 -0.24958888
000360 3a 2a 8a 3e 1d fd 59 be d1 c5 7b be cd 3f 36 be
       0.2698534 -0.21287961 -0.2458718 -0.17797776
000370 00 91 26 3e 6f d4 f5 3d 62 5d a2 be 30 07 53 3e
       0.1626625 0.12003409 -0.3171187 0.2060821
000380 28 91 0c 3e 4e 82 84 be 5c c4 91 be 46 60 12 be
       0.13727248 -0.25880665 -0.28470123 -0.14294538
000390 e0 81 68 3e 1b 4f 7b 3e d4 8b b1 3e 37 6c 43 3e
       0.22705793 0.24541895 0.34676993 0.1908425
0003a0 54 c3 db 3d 49 3f 8e be d6 fa 25 3e 3f 36 5f 3d
       0.10730615 -0.27782658 0.16208968 0.054495092
0003b0 be f0 97 be 28 ea 96 be 96 ed b9 3d 96 23 a9 be
       -0.2967586 -0.29475522 0.09078519 -0.33034962
0003c0 73 ab 5f be c5 9e 94 3e 69 19 b3 be 3a 81 e8 3d
       -0.21842746 0.29027382 -0.34980324 0.11352773
0003d0 b0 db 80 be f9 b5 a1 3e 47 71 58 3b ea 59 ae be
       -0.25167608 0.31584147 0.0033026503 -0.34052974
0003e0 18 a1 3b be 77 90 88 3e f1 39 17 be 37 bf 52 be
       -0.18323171 0.26672718 -0.14768197 -0.20580755
0003f0 fb c4 87 be ee 70 43 3e 3e 8b 35 be 7b 42 0f 3d
       -0.26517472 0.19086048 -0.17728898 0.03497551

bias f4 [37]
000000 00 00 80 3f 00 00 80 3f 00 00 80 3f 00 00 80 3f
       1.0 1.0 1.0 1.0
000010 00 00 80 3f 00 00 80 3f 00 00 80 3f 00 00 80 3f
       1.0 1.0 1.0 1.0
000020 00 00 80 3f 00 00 80 3f 00 00 80 3f 00 00 80 3f
       1.0 1.0 1.0 1.0
000030 00 00 80 3f 00 00 80 3f 00 00 80 3f 00 00 80 3f
       1.0 1.0 1.0 1.0
000040 00 00 80 3f 00 00 80 3f 00 00 80 3f 00 00 80 3f
       1.0 1.0 1.0 1.0
000050 00 00 80 3f 00 00 80 3f 00 00 80 3f 00 00 80 3f
       1.0 1.0 1.0 1.0
000060 00 00 80 3f 00 00 80 3f 00 00 80 3f 00 00 80 3f
       1.0 1.0 1.0 1.0
000070 00 00 80 3f 00 00 80 3f 00 00 80 3f 00 00 80 3f
       1.0 1.0 1.0 1.0
000080 00 00 80 3f 00 00 80 3f 00 00 80 3f 00 00 80 3f
       1.0 1.0 1.0 1.0
000090 00 00 80 3f
       1.0

weight f4 [37, 37]
000000 6c ca 6f 3e 2d df 15 3e 4d 96 fe 3d 15 84 3f 3e
       0.23417062 0.14635916 0.12431011 0.18702729
000010 2f a5 74 3e f7 11 5c be d5 9c 91 be 7c 05 e1 3d
       0.23891138 -0.21491228 -0.28439966 0.10987374
000020 56 99 ce 3d c7 ff 0d 3e 21 05 79 3e f1 7d 13 be
       0.1008784 0.13867103 0.24318363 -0.14403512
000030 f1 8b 70 be e7 52 4a be 83 70 fd bd f3 a4 8d be
       -0.23490883 -0.19758187 -0.123749755 -0.2766491
000040 63 46 32 be 8e 7c 8d be 67 58 3e 3e 77 b3 42 3d
       -0.17409663 -0.2763409 0.1858841 0.047534432
000050 24 b8 01 3e cf 74 3d 3e 6b ea b8 3d be 08 db bc
       0.126679 0.1850159 0.09029087 -0.026737567
000060 e1 e3 4b 3e ac 94 22 3c 7e d1 df bd 73 e6 2f 3d
       0.19911148 0.009923141 -0.10928629 0.042944383
000070 c2 17 3e be ce dc ac 3d b5 25 01 3e 49 d7 c1 3d
       -0.1856375 0.08440553 0.1261204 0.094648905
000080 e4 b3 42 3b 05 2c 14 bd 96 03 81 be 22 d9 89 3e
       0.0029709274 -0.036174793 -0.25198048 0.26923472
000090 08 d0 d8 3c 4c a1 18 3e 11 85 61 be d2 e4 49 be
       0.026466385 0.1490528 -0.22023417 -0.19716194
0000a0 4f ec 42 3e 56 0e 7d be e5 ee bd 3d bc ed 39 3e
       0.19035457 -0.247125 0.09274081 0.18157095
0000b0 32 15 40 be 1f a7 84 3e 2d af db bc e3 76 25 3e
       -0.18758085 0.25908753 -0.026816929 0.16158633
0000c0 e0 c4 f5 3d 5b 9b 0b bd 76 c7 02 ba 81 bf 48 3e
       0.120004416 -0.034083705 -0.00049888284 0.19604303
0000d0 2f aa 1b be 13 a0 1e 3e 90 5b 80 bb 86 aa 28 bb
       -0.15201639 0.15490751 -0.003917165 -0.0025736406
0000e0 7d 00 72 3e af 1b 5c be c9 5a 1d 3e 3f ce ed 3d
       0.23632999 -0.21494935 0.15366663 0.11611604
0000f0 45 f8 57 3e 0c 53 1a be 13 56 6d be 3b 13 d0 bd
       0.21090801 -0.15070742 -0.23177366 -0.10159918
000100 50 ad 82 be e7 df 5e bd bd 1b 4a 3a 7b 84 67 be
       -0.25522852 -0.05441275 0.0007709822 -0.22609131
000110 d2 58 c7 bd 94 25 c3 3c 69 be 8d 3e e4 0b 3c 3e
       -0.09733738 0.02382163 0.27684334 0.18363911
000120 b8 31 6c 3d 48 2a 28 3d 58 5c 12 bd 37 68 9f 3c
       0.057664603 0.041055948 -0.035732597 0.019458873
000130 26 da fc 3d 0d c3 87 be fc a7 03 3d 76 43 21 be
       0.12346296 -0.26516 0.032142624 -0.1574839
000140 c9 f4 45 be d3 f5 27 3e 32 c0 2a 3e 41 db 8f 3e
       -0.1933166 0.16402368 0.16674879 0.28096965
000150 da c3 0b be 16 66 01 bc 31 b8 95 3d d4 33 1b be
       -0.1364893 -0.007897874 0.07310522 -0.1515649
000160 e8 5a 9f 3d 3d 12 81 be e1 42 00 be d5 42 e2 3d
       0.07781011 -0.25209227 -0.12525512 0.110479034
000170 e4 9b 88 bc 3e 99 0d be 2b 04 55 3e e3 bf 37 be
       -0.016675897 -0.13827989 0.20802371 -0.17944293
000180 8e 16 78 bd ea 3c 83 3e 1e 85 70 3e 28 3f e0 bd
       -0.060568385 0.2563241 0.2348828 -0.10949546
000190 24 67 91 bd b7 c4 57 be b6 c3 27 be 1f 8a 91 3e
       -0.07099751 -0.21071135 -0.16383252 0.2842569
0001a0 c2 ea c2 bd ff 25 64 bd 51 28 49 3e e8 45 48 bc
       -0.09517433 -0.0557003 0.19644286 -0.012223698
0001b0 81 1a 8a 3e 38 3a 8a be 4a 37 87 3e 9b 0f 60 be
       0.26973346 -0.26997542 0.2640937 -0.21880953
0001c0 40 d7 1c 3e c9 2a 64 3e 58 4c 15 be 3d 20 7e 3d
       0.15316486 0.22281946 -0.14579904 0.062042464
0001d0 5a cf c5 bd d6 09 53 bd 41 d3 1c be e9 a7 ed bc
       -0.0965869 -0.051523052 -0.15314962 -0.02901073
0001e0 6c a4 89 bc c4 65 42 be fe df c5 bb 18 8f 46 be
       -0.016802035 -0.18984133 -0.006038665 -0.19390523
0001f0 3c ab b1 bd b4 1a 7e 3e 53 31 bd 3c ee 76 d0 bd
       -0.086752385 0.24814874 0.023094809 -0.10178934
000200 87 ad 88 3d f6 36 c2 3d d1 47 76 be 1c 82 51 3e
       0.06673723 0.09483139 -0.24050833 0.20459789
000210 33 72 9f 3d 80 dc 54 3e c0 68 65 3e c6 ff 1f bc
       0.07785454 0.20787239 0.2240324 -0.009765571
000220 da ca b3 3c 5d 67 16 3e 57 25 c8 bd 62 fc a7 bd
       0.021947313 0.14687867 -0.09772747 -0.08202435
000230 ab c4 09 be b4 eb c2 3d 83 b7 42 3e 5e 46 6a be
       -0.13453929 0.09517613 0.19015317 -0.22878405
000240 df 24 3f be 1d 47 9f 3d dc 7a f2 bd 61 59 5e be
       -0.18666409 0.07777236 -0.1183984 -0.21713783
000250 c2 cf 4e bd 07 7c f7 3d 75 ff 42 3e 10 94 95 3d
       -0.050491102 0.12084203 0.19042762 0.07303631
000260 9a 72 ef 3d c7 3d 18 3e 54 4a ec bd c6 78 66 be
       0.116917804 0.14867316 -0.115376145 -0.22507009
000270 c5 c8 0f 3e ac 6e d3 3d 39 fc dc bd e9 85 35 3e
       0.14041431 0.10323843 -0.10790295 0.17726864
000280 fd b1 52 be d1 01 5b 3e db 82 4c 3e 90 be 0f be
       -0.2057571 0.21387412 0.19971792 -0.14037538
000290 a8 e1 e6 bd 13 d8 58 bb b1 e1 64 be 81 21 3a 3e
       -0.11273509 -0.0033087775 -0.2235172 0.18176843
0002a0 a8 58 a1 bd fe cd 7f 3e d9 31 8c 3d 40 05 3a 3e
       -0.07878238 0.24980924 0.06845445 0.18166065
0002b0 15 14 01 bd f9 30 7c 3e 98 34 84 bd 2c d7 21 be
       -0.031513292 0.24628057 -0.06455344 -0.15804738
0002c0 51 f9 bf bd 17 ec 8d 3e a3 8c 84 3c fd 43 33 be
       -0.09373725 0.27719185 0.016180342 -0.17506404
0002d0 aa 45 7e be 4c d8 da bd 16 34 15 3e 4c cf 2c 3e
       -0.24831262 -0.106857866 0.1457065 0.16875952
0002e0 65 9a 4e be aa 6c da 3d 3c 90 35 be fb 39 09 3e
       -0.20176084 0.10665257 -0.17730802 0.13401024
0002f0 3e 35 9e bd 52 7f cb 3d 4c 8e ab 3b 18 13 17 be
       -0.07724999 0.09936394 0.005235469 -0.14753377
000300 3a 19 40 3e b3 bf cd bd 79 e9 06 be 1b d7 4a 3d
       0.18759623 -0.10046329 -0.13175 0.049521547
000310 6b b6 35 3e 06 bc 4e 3e 40 f6 41 bc 4f 03 5c 3e
       0.17745368 0.20188913 -0.011838496 0.21485637
000320 b4 b6 37 be de 75 38 be 68 b1 2d be 1f a7 7d be
       -0.1794079 -0.18013713 -0.16962206 -0.24770783
000330 b5 7f 5d bd 95 21 08 3e 44 50 10 bb 89 4a 15 3e
       -0.05407687 0.1329406 -0.0022020498 0.14579214
000340 47 4e 38 3e 81 64 6d 3e 31 a9 57 be 1e 86 b2 bd
       0.1799861 0.2318287 -0.21060635 -0.08716987
000350 0a dd b9 3d d0 78 09 be 0b 35 3d 3e 99 d7 65 bd
       0.09075363 -0.13424993 0.18477266 -0.056113813
000360 68 d8 1c bd 1a 44 f2 bd c0 9c 88 3e de 20 3b be
       -0.03829232 -0.118293956 0.2668209 -0.18274257
000370 59 0a 57 3e 0f 77 a2 bc 71 f3 b2 bc c8 22 46 3e
       0.21000041 -0.019832162 -0.021844598 0.19349205
000380 63 79 5a 3e 27 ef fa bd 30 d0 35 3e aa ff 28 3d
       0.21335368 -0.12252646 0.17755198 0.041259445
000390 70 65 1a 3e fe ea 82 be ab fc 80 3e 1d cc c2 3d
       0.15077758 -0.2556991 0.2519277 0.09511588
0003a0 5a da 26 3e 83 3e 0e 3e 8c 7b 7a be 39 2f a7 bd
       0.16294232 0.13891034 -0.24461192 -0.08163304
0003b0 43 e1 d6 bd 7d 46 e0 bd 83 6f 25 be ce 51 10 be
       -0.10492184 -0.109509446 -0.1615582 -0.14093706
0003c0 c3 40 03 bb b6 37 94 3d 00 6d 20 3e 53 0e 2d be
       -0.0020027615 0.072371885 0.1566658 -0.16899996
0003d0 4a 6e 8d 3d 3c 54 56 3e 83 61 3c be f3 92 6f 3e
       0.069058016 0.2093057 -0.18396573 0.233959
0003e0 49 27 a4 bd 95 16 28 3e 3e 8a 8d 3e 93 e4 e9 bd
       -0.080153055 0.16414864 0.27644533 -0.1142055
0003f0 f1 dc 92 3d 11 2c 81 be 13 cc d1 3d c5 20 9a 3d
       0.071710475 -0.25228932 0.10244002 0.075257815

bias f4 [37]
000000 00 00 80 3f 00 00 80 3f 00 00 80 3f 00 00 80 3f
       1.0 1.0 1.0 1.0
000010 00 00 80 3f 00 00 80 3f 00 00 80 3f 00 00 80 3f
       1.0 1.0 1.0 1.0
000020 00 00 80 3f 00 00 80 3f 00 00 80 3f 00 00 80 3f
       1.0 1.0 1.0 1.0
000030 00 00 80 3f 00 00 80 3f 00 00 80 3f 00 00 80 3f
       1.0 1.0 1.0 1.0
000040 00 00 80 3f 00 00 80 3f 00 00 80 3f 00 00 80 3f
       1.0 1.0 1.0 1.0
000050 00 00 80 3f 00 00 80 3f 00 00 80 3f 00 00 80 3f
       1.0 1.0 1.0 1.0
000060 00 00 80 3f 00 00 80 3f 00 00 80 3f 00 00 80 3f
       1.0 1.0 1.0 1.0
000070 00 00 80 3f 00 00 80 3f 00 00 80 3f 00 00 80 3f
       1.0 1.0 1.0 1.0
000080 00 00 80 3f 00 00 80 3f 00 00 80 3f 00 00 80 3f
       1.0 1.0 1.0 1.0
000090 00 00 80 3f
       1.0

weight f4 [37, 37]
000000 6b fe 47 3e 68 23 6f bd ad a4 db 3d 14 7c 88 3e
       0.19530647 -0.058383375 0.10724769 0.26657164
000010 5a ac 2a 3d 02 ab 0c bc 8f 50 a4 3d 6f f8 14 bd
       0.041668274 -0.008585693 0.08023178 -0.036369737
000020 06 0f 50 3e 97 3e 17 be 26 95 e3 3d 66 d7 bc 3d
       0.20318231 -0.1476997 0.11112432 0.092207715
000030 e1 de 7a be 50 92 fe 3d 0c 47 3d 3e 15 d1 5d 3e
       -0.24499084 0.12430251 0.18484133 0.2166179
000040 7e 4f 07 3e 02 d2 86 be 59 d1 81 bd 6a 46 88 bd
       0.13213918 -0.26332098 -0.06338758 -0.066540554
000050 c0 d4 5c 3c 5d 6f 0b bb 43 c7 13 3e 71 e1 ef bd
       0.013478458 -0.0021276094 0.14431481 -0.117129214
000060 9a 0e 56 be 71 15 80 be bc 22 8f be 45 62 23 3e
       -0.20904008 -0.25016358 -0.27956188 0.15955456
000070 7f 2c 69 be f6 bc 52 3e 2d aa 0a 3e 2a a2 46 be
       -0.2277088 0.20579895 0.1354148 -0.19397798
000080 df 2d c0 3c 77 48 07 3e 16 a9 8e be f0 5f 34 3e
       0.023459373 0.13211237 -0.27863377 0.17614722
000090 29 82 e9 bc 93 7e f1 bd 91 73 c7 bd 54 b7 1a bd
       -0.028504448 -0.1179172 -0.097388394 -0.03777249
0000a0 3c cc 80 bd b3 10 90 3e e7 b5 24 be 6a 00 9a bc
       -0.062889546 0.2813774 -0.16085015 -0.018799026
0000b0 aa 42 30 3e 93 f1 87 3e 42 ee 77 be 59 89 8b be
       0.1721293 0.26551494 -0.24211982 -0.27253225
0000c0 c5 84 04 3e 53 da 07 3e 62 16 e9 bd 31 c6 78 be
       0.12941273 0.13266878 -0.11381222 -0.24294354
0000d0 f8 64 82 3e 33 75 6d be 39 43 71 3e 2e 9b 6a 3e
       0.25467658 -0.23189239 0.235608 0.22910759
0000e0 0d 8b 9d bd e9 10 ee bd 7f cb aa bd 00 ff bd 3d
       -0.076925375 -0.11624319 -0.08339595 0.09277153
0000f0 a1 16 4e 3e 6e 8c 6e 3e 29 f1 8f bd 1d 76 41 3e
       0.2012582 0.23295757 -0.070284195 0.18892713
000100 2a 60 86 3e e0 2b 97 bc 9c 0a f7 bc 0b 06 8b be
       0.26245242 -0.018453538 -0.030156426 -0.27153048
000110 b1 3f 22 3e 86 78 bf 3d e4 24 3b 3d fe c4 2f be
       0.15844609 0.0934916 0.04568948 -0.1716499
000120 7b a2 e3 3d 10 ec 5f 3e 06 48 38 bd ae c5 08 bb
       0.11114975 0.21867394 -0.044990562 -0.002086978
000130 c0 0b 04 3e be 15 53 3e 13 1a 19 be 19 7b 70 3d
       0.12895107 0.20613763 -0.14951353 0.058711145
000140 3f 30 64 3e f2 c6 3e 3d 5a 92 06 be 4f d3 70 be
       0.2228403 0.046576448 -0.13141766 -0.23518108
000150 85 6c a8 3c 37 22 50 3c 90 79 c0 bd 62 e0 0d 3c
       0.020559559 0.01270347 -0.09398186 0.008659454
000160 17 72 e0 bd e7 b7 8f 3e b5 ff 1e 3e b1 8d ae 3c
       -0.10959261 0.28069994 0.15527232 0.021307798
000170 bc 18 49 be a9 93 91 be 30 92 d8 3d 82 c9 f6 bd
       -0.19638342 -0.28432968 0.10574758 -0.12050153
000180 3f da b6 bd dc c4 84 3e 56 ef 36 3e 20 9e 35 3c
       -0.08928346 0.25931442 0.17864737 0.011085063
000190 bb 06 37 3e c5 71 02 be ac a9 3b 3e c3 3e 45 3e
       0.17873661 -0.12738712 0.18326443 0.19262223
0001a0 0d 4b 8c be 6f 56 18 3c 0e a6 83 be f4 3c 46 3e
       -0.2740101 0.009297951 -0.25712627 0.1935919
0001b0 c5 9d 3f 3e 80 b2 5f 3e b4 4e b3 bd bf 37 04 bd
       0.18712528 0.21845436 -0.08755246 -0.032279726
0001c0 f9 0d a3 3d 34 dd 11 bb ff f4 b9 3c 5a 64 5b 3e
       0.079616494 -0.0022257091 0.022699831 0.21425
0001d0 e2 7e 5c 3e 0f c5 e6 3d 2f 1f f1 3d 10 29 fe 3b
       0.21532777 0.11268055 0.11773526 0.00775636
0001e0 4f e6 61 be aa 37 74 3e ac fb 88 3d 2f 26 ef 3c
       -0.22060512 0.23849359 0.066886276 0.029193012
0001f0 51 8a 3b be 1c b5 a4 3b b8 94 fb bd 75 df 34 be
       -0.18314482 0.0050264727 -0.12284225 -0.17663367
000200 5b 3b c5 3d c9 36 38 3e cf 65 7f 3d 85 0a 3a be
       0.09630462 0.17989649 0.06235295 -0.18168075
000210 3c 26 8a be bc 03 89 bd 99 93 67 be 4a 85 c0 bc
       -0.26982296 -0.066901654 -0.22614898 -0.023501057
000220 d4 a3 00 be 01 4f b6 bd 7d 66 46 be 97 f8 3f 3e
       -0.12562495 -0.089017875 -0.19375034 0.18747173
000230 7c 4d a2 3c d7 91 dd 3d e4 3c 17 3d ce fe 43 3d
       0.019812338 0.10818832 0.036923304 0.047850423
000240 44 7a 69 be 00 f9 8d 3e a5 5c 2e be 50 0b 1e be
       -0.22800547 0.27729034 -0.17027529 -0.15434003
000250 4d 06 21 be f9 57 5e 3d 23 19 80 3e 0e 7a 81 3e
       -0.1572506 0.054283116 0.25019178 0.25288433
000260 dc 26 5c 3e 81 cb b8 3d 44 bc 95 bc 87 02 86 3e
       0.21499199 0.0902319 -0.018278249 0.26173803
000270 0a d6 a2 3d 34 6e e8 bd 1c be 39 be 40 67 3d 3d
       0.07950981 -0.113491446 -0.18138927 0.046241045
000280 d0 3c af bc 04 53 ec bd 14 97 85 be 90 07 e7 3d
       -0.021391302 -0.115392715 -0.26091826 0.11280739
000290 d3 cd 30 3e da 6b d2 3d a9 0f d4 3b 55 e7 16 3e
       0.17266016 0.10274477 0.0064715934 0.14736684
0002a0 1b 3c 49 3d df 1c 8b 3e 8c 4a 73 be 96 e6 18 be
       0.049129587 0.27170464 -0.23758906 -0.14931712
0002b0 92 5d 76 3e 13 64 0a be 41 8b d3 3c bf 8f 24 3e
       0.24059132 -0.13514738 0.025823237 0.1607046
0002c0 a4 13 69 be ad 96 16 3e f6 b5 62 3e 3a 0c ed ba
       -0.22761399 0.14705916 0.22139725 -0.0018085309
0002d0 8a 3f 83 3e c2 ba 80 be 5e 3d b6 3d 06 1d 1d be
       0.25634414 -0.25142485 0.088984236 -0.15343103
0002e0 a0 76 43 3e 19 c5 9f bd 66 89 c6 3d 99 7b 8d 3e
       0.1908822 -0.07801265 0.096941754 0.2763336
0002f0 0e c8 af 3d 0d 0c 58 be 87 65 4f be ea b6 96 bd
       0.08583079 -0.21098347 -0.20253573 -0.07359107
000300 92 6e e4 bd 4f d6 6a 3e 65 9d 32 be df 87 53 be
       -0.11153902 0.22933315 -0.17442854 -0.206573
000310 aa bf d9 bd 1b 71 8e 3e cf d8 5f 3d d8 8a 23 be
       -0.1063226 0.27820668 0.054650124 -0.15970933
000320 7a 66 8a 3c dd dd a1 3d 53 1c 37 be 7b 49 09 bd
       0.016894568 0.07903645 -0.17881899 -0.033517342
000330 61 47 95 b8 01 8f 68 3e 0e 16 55 bc d6 c2 38 3e
       -7.118169e-05 0.22710802 -0.0130057465 0.18043074
000340 fc 58 61 3e 32 42 bd 3d fa 40 86 be fb b4 25 3e
       0.22006601 0.092411414 -0.26221448 0.1618232
000350 da b1 03 be 81 bb a2 bd 26 67 06 3e bd 7c 5e 3d
       -0.12860814 -0.0794592 0.13125286 0.05431818
000360 f8 4b 89 be 33 5d ea bd 55 9d 2c be 89 97 c4 3d
       -0.26815772 -0.114435576 -0.16856892 0.095992155
000370 df ed e1 bd 64 19 ff bd 78 53 85 3e c5 c5 71 be
       -0.110316984 -0.12456015 0.26040244 -0.236106
000380 10 62 85 be a3 e5 d2 bd 4d 91 70 be 6e 84 9d bd
       -0.26051378 -0.10297706 -0.23492928 -0.076912746
000390 ab f2 43 bc d8 0c 61 be a1 96 6e 3e 02 9d 90 3e
       -0.011959712 -0.21977556 0.23299648 0.28244787
0003a0 80 ab 82 3e de 3a b4 3d a3 7e c4 bd b6 83 3b 3c
       0.2552147 0.088002905 -0.095944665 0.011444977
0003b0 f5 64 be 3d dd 89 aa bd d6 4e 25 bd d9 fe d4 ba
       0.092966 -0.083270766 -0.040358387 -0.0016250267
0003c0 88 9c 14 be b2 1a 8b 3e cc 5a 78 be d3 67 8f be
       -0.14512837 0.27168804 -0.24253386 -0.280089
0003d0 5e 95 86 3c 52 d7 c4 bd 25 0e 8c be 37 b5 0b 3e
       0.016428646 -0.096113816 -0.2735454 0.13643347
0003e0 81 14 7d be b5 e3 73 bc cc fb 0b be 1a d0 02 3e
       -0.24714853 -0.014885833 -0.13670272 0.12774697
0003f0 09 89 c5 3d 91 17 71 3d 55 f6 5c 3e a6 57 b2 bd
       0.09645278 0.058860365 0.21578343 -0.08708124

bias f4 [37]
000000 00 00 80 3f 00 00 80 3f 00 00 80 3f 00 00 80 3f
       1.0 1.0 1.0 1.0
000010 00 00 80 3f 00 00 80 3f 00 00 80 3f 00 00 80 3f
       1.0 1.0 1.0 1.0
000020 00 00 80 3f 00 00 80 3f 00 00 80 3f 00 00 80 3f
       1.0 1.0 1.0 1.0
000030 00 00 80 3f 00 00 80 3f 00 00 80 3f 00 00 80 3f
       1.0 1.0 1.0 1.0
000040 00 00 80 3f 00 00 80 3f 00 00 80 3f 00 00 80 3f
       1.0 1.0 1.0 1.0
000050 00 00 80 3f 00 00 80 3f 00 00 80 3f 00 00 80 3f
       1.0 1.0 1.0 1.0
000060 00 00 80 3f 00 00 80 3f 00 00 80 3f 00 00 80 3f
       1.0 1.0 1.0 1.0
000070 00 00 80 3f 00 00 80 3f 00 00 80 3f 00 00 80 3f
       1.0 1.0 1.0 1.0
000080 00 00 80 3f 00 00 80 3f 00 00 80 3f 00 00 80 3f
       1.0 1.0 1.0 1.0
000090 00 00 80 3f
       1.0

weight f4 [37, 37]
000000 bd 71 57 3e fd 74 64 be 61 15 8c 3e 34 d0 d1 bd
       0.21039481 -0.22310252 0.2736006 -0.1024479
000010 9e 36 78 be 21 5e 7a 3e a1 be 94 bc 12 cd 0c be
       -0.24239585 0.2444997 -0.018157305 -0.13750103
000020 be be 6e 3e 46 9d d5 bd da 72 88 be 1e 5c e1 3d
       0.2331495 -0.10430388 -0.26650125 0.11003898
000030 14 6f 11 be ff fd 43 be 4d b2 04 3e c0 cb e9 bd
       -0.14202529 -0.1913986 0.12958641 -0.11415815
000040 1e 8e f5 bc 60 06 eb bd 69 7d 92 bd d1 2d 91 3d
       -0.029974993 -0.11475825 -0.07152826 0.07088817
000050 43 ab f4 3d 39 c3 ba bd de 0b 76 be 0d 3d fe 3d
       0.11946728 -0.09119267 -0.24027964 0.12413988
000060 b9 71 5e be 25 0b ee 3c 46 ec db bd 44 3b 63 be
       -0.21723069 0.029058049 -0.10738425 -0.22190577
000070 08 de ed bd 79 5f 84 be 99 da 5c be 34 fa 70 be
       -0.11614615 -0.2585409 -0.21567763 -0.23532945
000080 f8 ab 06 3e 94 a5 57 3d 1f 6d df 3d de 22 1b 3e
       0.13151538 0.052648142 0.10909485 0.1515002
000090 57 0c 78 bd fd ea 72 be 66 2f 4f be 66 6f 08 3e
       -0.060558643 -0.23722453 -0.20232925 0.13323745
0000a0 d0 5d 33 be cd e1 92 bd f2 a4 68 be fd 2e b6 3c
       -0.17516255 -0.07171974 -0.22719172 0.022239203
0000b0 2d 84 32 be ee f9 ef 3d 68 32 2d 3e d0 ea de 3d
       -0.17433234 0.11717592 0.1691376 0.10884631
0000c0 eb 37 af bd f9 e5 15 3e 9e c2 88 bc 31 c9 2f be
       -0.085555874 0.14638509 -0.016694363 -0.17166592
0000d0 9e a8 77 be be 56 48 3d a7 37 66 3e 0b 03 7e 3e
       -0.24185416 0.04891085 0.22482167 0.24805848
0000e0 13 5f 18 3e 84 1d aa bd 6b f3 1b 3e b6 51 9a bc
       0.14880018 -0.08306411 0.15229575 -0.018837791
0000f0 a6 a7 87 3d ad 32 27 3e 84 df 4f be 4d bb 75 3e
       0.06623773 0.16327925 -0.20300108 0.23997231
000100 d4 4f 3d be 93 9b 02 be ca 5b 91 be 31 0e 35 be
       -0.18487483 -0.1275466 -0.28390342 -0.17681195
000110 18 70 24 be 75 c0 8a bd 04 81 62 3e a0 ea 29 be
       -0.16058385 -0.067749895 0.22119528 -0.16593409
000120 41 de 67 3e c6 5f 11 bc 34 5c 80 bd b2 03 8b 3e
       0.22643377 -0.008872932 -0.06267586 0.27151257
000130 35 14 78 3c bf c4 a0 bc 1e 19 39 3e fc 88 23 be
       0.0151415365 -0.019625066 0.18075988 -0.15970224
000140 0d ab 2a be d4 dd 1e 3d 02 ae 64 be 0d fc 85 be
       -0.16666813 0.03878577 -0.22332004 -0.26168862
000150 75 b4 a2 3d 76 2d 11 3e e4 13 86 be 50 9a 7e 3e
       0.07944576 0.14177498 -0.2618705 0.24863553
000160 af 64 0b bc 75 60 6d be d3 1f 07 bd 1e 8d 8c be
       -0.008507892 -0.23181327 -0.032989334 -0.27451414
000170 fb 6d 57 3e 64 b0 14 3e 99 7d 46 bd e2 c8 91 be
       0.21038048 0.14520413 -0.048459623 -0.28473574
000180 a2 6f d0 3d f9 62 4a be 55 2e c9 3c aa 1f bc 3d
       0.10177542 -0.19764318 0.024558226 0.09185727
000190 95 e0 b6 3d 8d 9a 1a be 82 61 d4 3d 3a b5 24 3e
       0.089295544 -0.15098019 0.10370161 0.16084757
0001a0 f6 5a 88 3e 59 b5 8d 3e 85 ae 84 bc cd e1 73 3e
       0.26631898 0.2767742 -0.016196499 0.23816605
0001b0 17 eb 7f 3e 94 82 02 3e db d7 27 3e 0b 7f 2c be
       0.24992023 0.12745124 0.16390936 -0.16845338
0001c0 94 eb 37 3e 9b 27 83 be 31 c8 6b be f0 e9 b2 bd
       0.1796096 -0.25616154 -0.23025586 -0.08736026
0001d0 bc 3c 98 3c 14 c3 0b be a9 60 b6 3d 0b e2 52 3e
       0.018583648 -0.13648635 0.08905155 0.20594041
0001e0 11 26 89 be 27 06 ae bc a1 a1 99 bd 82 eb 2b be
       -0.26786855 -0.021243168 -0.075015314 -0.16789058
0001f0 b1 0d 81 be a3 60 de 3d e9 16 54 be ed 93 af 3d
       -0.25205758 0.10858276 -0.20711865 0.085731365
000200 2c 27 43 be 17 09 8f 3c 22 07 15 be dd 13 8f be
       -0.19057912 0.017460389 -0.14553502 -0.27944842
000210 91 f0 30 be f4 85 f6 3d f9 38 ee 3d fb 7d 8c be
       -0.17279269 0.12037268 0.116319604 -0.27439865
000220 94 0a 78 be b8 1f 68 3e 24 fa 57 be 6e 86 88 be
       -0.24222785 0.2266835 -0.21091515 -0.26665062
000230 bb d1 57 be ca 8b ca 3d e2 02 51 3c eb 77 3c 3e
       -0.210761 0.09889944 0.012757035 0.1840512
000240 c0 6b 16 3e bb be 6f be 9a 49 4a be e8 4f 1f 3e
       0.14689541 -0.23412602 -0.1975464 0.15557826
000250 fd 5a 88 bd 7b 1f 38 be 28 c1 90 be 11 28 14 3d
       -0.0665798 -0.17980759 -0.28272367 0.036171023
000260 22 53 cf 3d 00 95 fb bd 71 28 b3 3d cc f4 89 be
       0.10123278 -0.12284279 0.08747948 -0.26944578
000270 28 fc 18 bb 5e 25 ef 3d fc f3 a7 3d 41 e8 d2 bd
       -0.0023343656 0.11677049 0.08200833 -0.10298205
000280 36 85 e4 bd d8 83 73 be 87 6e 59 3d 55 ab 3a be
       -0.111582205 -0.23780763 0.053083923 -0.1822942
000290 66 19 6f be 10 ba 4c be 14 3b 00 3e 32 9b 5c bd
       -0.23349532 -0.19992852 0.12522537 -0.053858943
0002a0 8a 78 40 be d5 87 e5 3d 73 71 60 be b6 d2 7b 3e
       -0.18795982 0.112075485 -0.21918277 0.24592099
0002b0 f2 6d 84 3e 20 95 20 bc 55 67 8d 3d 17 ba 5f be
       0.25865132 -0.009801179 0.06904475 -0.21848331
0002c0 f1 fc 8f 3e ba da 6e 3e 2d 88 69 3e a4 f2 83 bd
       0.28122666 0.23325625 0.22805853 -0.064427644
0002d0 03 12 3d 3e ec 62 b3 3a 0a 24 88 3e 7f 66 1a 3d
       0.18463902 0.0013686097 0.26589996 0.037695404
0002e0 4f b0 1a 3e 9c a5 cd 3d 3d 72 8c 3e 11 c8 dd bb
       0.15106319 0.10041353 0.27430907 -0.0067682345
0002f0 35 e0 82 be 89 93 0b 3e 37 b6 a1 bd a1 51 1b 3e
       -0.2556168 0.13630499 -0.07896083 0.15167858
000300 f9 78 c0 bc 2b 9e 91 bd 20 27 91 3d 5b 96 59 bd
       -0.023495184 -0.07110246 0.070875406 -0.053121906
000310 d5 0b 4f 3e 2a c4 32 3e e4 7c 05 3d b5 ce 36 3e
       0.20219357 0.17457643 0.032589808 0.1785229
000320 48 d4 74 3d 48 28 0e 3d 2f ef 5a be 0c 59 e9 bd
       0.05977276 0.034706384 -0.21380304 -0.113939375
000330 00 21 6e 3d db a6 8d 3e 2e 96 e6 bd ab 62 61 3e
       0.05813694 0.27666363 -0.11259113 0.22010295
000340 49 d5 72 be 6f f8 40 3e c8 23 24 be 4b 26 cd 3d
       -0.23714174 0.1884477 -0.16029274 0.100170694
000350 10 04 68 3e ce 2a f7 bd 5e 2d 0d 3e cd 04 47 3e
       0.226578 -0.12068711 0.13786837 0.19435425
000360 67 56 14 3e ef 68 87 bd 4d 51 85 be b6 13 ef 3d
       0.14486085 -0.06611811 -0.2603859 0.116736814
000370 e0 d3 9a 3d dd 31 57 3e 46 61 a8 3c 26 96 a8 bd
       0.07559943 0.21015115 0.020554196 -0.082317635
000380 0f 27 02 be e6 94 7f be 78 46 3d 3d 74 78 3c bc
       -0.12710212 -0.24959144 0.046209782 -0.011503328
000390 7c 4e cb 3d 34 99 72 3e e7 f1 53 bd a1 72 32 3e
       0.09927079 0.23691255 -0.051744368 0.1742654
0003a0 43 b6 4a be 13 a5 43 bc ab fb 8f be ed 13 ff 3d
       -0.1979609 -0.011941212 -0.28121695 0.124549724
0003b0 2a 86 fc 3d 9f 0c a6 3d 25 f6 f0 3d 06 67 a5 bd
       0.12330277 0.08107876 0.11765698 -0.08076291
0003c0 21 65 91 be eb aa ea 3d 78 2f 55 be a1 71 57 be
       -0.28397468 0.11458381 -0.20818889 -0.2103944
0003d0 3a f8 2b bb 05 d9 88 be a2 41 68 be de 2e 17 3d
       -0.0026240484 -0.26728073 -0.22681287 0.03690993
0003e0 d3 d8 83 be 5f 95 13 be fa 62 ec bd ad 8f 2f 3c
       -0.2575136 -0.1441245 -0.11542316 0.010715407
0003f0 a4 82 7c bc 50 c5 45 3e e3 7b ee 3d 8e 69 61 bd
       -0.0154120065 0.1931355 0.11644723 -0.055032305

bias f4 [37]
000000 00 00 80 3f 00 00 80 3f 00 00 80 3f 00 00 80 3f
       1.0 1.0 1.0 1.0
000010 00 00 80 3f 00 00 80 3f 00 00 80 3f 00 00 80 3f
       1.0 1.0 1.0 1.0
000020 00 00 80 3f 00 00 80 3f 00 00 80 3f 00 00 80 3f
       1.0 1.0 1.0 1.0
000030 00 00 80 3f 00 00 80 3f 00 00 80 3f 00 00 80 3f
       1.0 1.0 1.0 1.0
000040 00 00 80 3f 00 00 80 3f 00 00 80 3f 00 00 80 3f
       1.0 1.0 1.0 1.0
000050 00 00 80 3f 00 00 80 3f 00 00 80 3f 00 00 80 3f
       1.0 1.0 1.0 1.0
000060 00 00 80 3f 00 00 80 3f 00 00 80 3f 00 00 80 3f
       1.0 1.0 1.0 1.0
000070 00 00 80 3f 00 00 80 3f 00 00 80 3f 00 00 80 3f
       1.0 1.0 1.0 1.0
000080 00 00 80 3f 00 00 80 3f 00 00 80 3f 00 00 80 3f
       1.0 1.0 1.0 1.0
000090 00 00 80 3f
       1.0

weight f4 [37, 37]
000000 43 31 00 be 59 53 04 be be 56 c5 3a b8 c8 fe 3d
       -0.12518792 -0.1292242 0.0015055758 0.12440628
000010 aa bf e9 bd 10 2c 1d 3e 84 f4 2b be 2a 79 8a 3d
       -0.1141351 0.1534884 -0.16792494 0.067613915
000020 22 03 b2 3d 78 b4 82 be 14 2c 12 3e c2 a2 54 be
       0.08692004 -0.25528312 0.14274627 -0.20765212
000030 64 45 1e 3e b7 1f 1c 3c 82 e6 88 3e a8 93 fc bd
       0.15456158 0.009529046 0.26738364 -0.12332851
000040 0a f7 63 3e 89 62 0a 3e 00 fb 4d be d0 cf 93 3d
       0.22262207 0.1351415 -0.2011528 0.072173715
000050 16 d1 03 3e 15 e2 59 3e dc 54 eb bb 15 3d c5 3d
       0.12872729 0.2127765 -0.007181747 0.09630791
000060 1e 2e 4f bd 7d 23 4d be 0c e4 99 bd 23 f6 67 3e
       -0.05058109 -0.20033069 -0.075141996 0.22652487
000070 36 b7 31 be 78 ad a0 ba d4 45 02 3e f7 95 21 bc
       -0.17355046 -0.0012258729 0.1272195 -0.009862415
000080 7e 58 1f 3e 07 7d 9d 3d 2d 54 1d be be 87 c3 bd
       0.15561101 0.07689863 -0.15364142 -0.09547375
000090 df 79 83 3d 02 a4 7d be 91 0c 59 be 30 eb 89 be
       0.064197294 -0.24769595 -0.211962 -0.26937246
0000a0 e3 c0 c9 3d 9b 70 8d be a8 4e 69 bd 29 32 2c be
       0.09851243 -0.27624974 -0.056959778 -0.1681601
0000b0 95 bd 18 be 71 1f 02 3e 95 b2 5c be 2f 29 f4 bd
       -0.1491607 0.12707306 -0.21552499 -0.11921918
0000c0 55 8d 5f 3e 4d 21 12 3e 0e 31 5a be 28 ba 61 3e
       0.21831258 0.14270516 -0.21307775 0.22043669
0000d0 6a 05 63 3e 11 76 13 3d b2 46 14 3e 57 6d 89 3e
       0.22170034 0.03600127 0.14480093 0.26841232
0000e0 17 20 59 be cd 1d 46 3e 1e 72 26 3e 45 0b 9d 3d
       -0.21203648 0.19347306 0.1625447 0.07668165
0000f0 52 dc a8 3d 28 36 7d be 78 0f 47 3e 1b b5 b0 3d
       0.08245148 -0.2472769 0.19439495 0.08628293
000100 d1 38 35 be 1b ed 0b 3e e9 b6 68 be 06 e1 69 3e
       -0.17697455 0.13664667 -0.22726025 0.22839746
000110 fd 95 33 be c1 ae 38 3e 20 8a 23 3d 21 cc 83 3d
       -0.17537685 0.18035413 0.03992665 0.06435419
000120 b8 81 d7 bd d8 9a 61 be 8f c7 8b be 54 e3 05 be
       -0.10522789 -0.22031724 -0.2730069 -0.13075
000130 10 ac b6 3b 22 28 7d be 74 32 3e 3e 43 b7 72 be
       0.0055747107 -0.2472234 0.18573934 -0.23702721
000140 c3 e5 87 be b6 a9 88 be ef 38 53 be 2f ce c0 3c
       -0.26542482 -0.2669198 -0.20627187 0.023535816
000150 d9 b5 c5 3c 53 7a 46 3e d9 c8 95 3d d6 66 1a be
       0.024134563 0.193826 0.07313699 -0.15078291
000160 f1 c8 27 3e 63 e5 3c be 93 9a 78 3e b7 63 16 be
       0.16385247 -0.18446879 0.24277715 -0.14686476
000170 4e 40 2b be 1b 0c 7a 3d 2e 4f 2f 3c 69 5f 26 be
       -0.16723749 0.0610467 0.01070003 -0.16247334
000180 25 5e 81 3e 99 bc fe 3d fa ca 84 3e 94 ca 0f bd
       0.2526714 0.12438316 0.2593611 -0.035105303
000190 5e a4 68 3e 47 85 04 be 5a 76 7a 3d 1c b4 b9 3d
       0.22718951 -0.12941466 0.061148025 0.09067556
0001a0 de 83 48 be 27 7b 40 3e 4d a2 e3 bd ba d3 06 3d
       -0.19581553 0.18796979 -0.11114941 0.032916762
0001b0 af 7c 1f 3d 5d 4c 04 be 01 d5 0a be ea 0e 08 3e
       0.038937267 -0.12919755 -0.13557817 0.1328694
0001c0 0f d0 17 be 67 86 74 3e 9b a2 49 be d2 22 08 be
       -0.14825462 0.23879395 -0.19690935 -0.13294533
0001d0 a1 11 9b bc de dd 6b 3e f6 f1 04 be 51 3f ae bc
       -0.018929305 0.23033854 -0.12982926 -0.021270426
0001e0 44 71 00 3e 76 a6 8f 3e 80 84 6e be 10 b2 2a be
       0.12543207 0.28056687 -0.23292732 -0.16669488
0001f0 6b dd 94 3d 8a d5 8b 3e 87 ab 7d bd 20 fa 91 bd
       0.072687946 0.27311355 -0.06193116 -0.07127786
000200 4b 36 7c bd f3 8d c8 bd a4 c7 65 3e 99 4f 9e 3c
       -0.061575215 -0.097927 0.22439438 0.019325064
000210 a1 f7 e8 3c 92 06 45 be db 3b b6 bd 18 72 3e bd
       0.028438391 -0.19240788 -0.08898135 -0.046495527
000220 d9 38 0a 3c bd 9d bc 3d e1 0e 37 3e 98 07 ca 3d
       0.008436405 0.09209774 0.1787677 0.0986473
000230 43 d1 27 bc 2a 9c 8a 3e 5d ec 2e be 5b 64 bb bd
       -0.010242763 0.2707227 -0.17082353 -0.09150001
000240 d0 57 3f bd 52 94 bf 3b 59 00 2c be 26 c3 40 bc
       -0.046714604 0.0058465386 -0.16797008 -0.011765277
000250 06 ac 84 be b6 b0 38 3e da 65 69 3e 77 17 08 be
       -0.25912493 0.1803616 0.2279276 -0.13290201
000260 b6 71 4b be 80 0a 5f be 7a 77 fb 3d e9 58 11 be
       -0.19867596 -0.21781349 0.12278648 -0.14194073
000270 39 20 f5 bd 33 98 19 bc ee 6c c4 3d f5 5d c3 3c
       -0.119690366 -0.009374666 0.09591089 0.023848513
000280 7c e7 64 3d fb c7 86 3b de a3 1d 3e d0 c6 1a 3e
       0.055884823 0.004113195 0.15394542 0.15114903
000290 a4 7d 2e bd 3b 75 12 be 5c d4 1c be cf d3 5c 3e
       -0.04260029 -0.14302532 -0.15315384 0.21565174
0002a0 14 f4 70 3d 00 7a 5e bd 7b 0c bc bd e6 2d ea bd
       0.05882652 -0.054315567 -0.09182068 -0.11434536
0002b0 4c 51 27 be 18 f0 e7 bd ad 25 d1 3d de db 86 be
       -0.16339606 -0.11325091 0.10212264 -0.2633962
0002c0 24 70 26 3e 56 77 46 3c c5 d4 8e be 07 7a 7c be
       0.16253716 0.012113413 -0.27896705 -0.24655925
0002d0 27 08 86 3e 70 35 61 be 84 3c 52 be 75 d7 bd bd
       0.26178095 -0.21993041 -0.20530897 -0.09269611
0002e0 35 44 40 3e d2 6d e0 3d fb d3 55 3e aa ab 57 bc
       0.18776019 0.109584466 0.20881645 -0.0131634865
0002f0 27 25 02 3e 51 33 62 be 3d 3e 8b 3e 45 d2 c2 3d
       0.12709485 -0.22089888 0.27195922 0.09512762
000300 cd b5 81 be 9f 39 0a 3e 3b 58 e6 3d 78 25 25 be
       -0.25334015 0.13498543 0.112472974 -0.16127574
000310 de 6c 23 be 5b c1 d3 3d f0 0c 2a be d9 74 42 3e
       -0.15959498 0.10339614 -0.16606498 0.18989886
000320 e6 e0 fd 3d fa c4 c2 bb f3 df 0a 3e d7 68 54 3e
       0.123964116 -0.0059438916 0.13561992 0.20743118
000330 5f ae 25 3d 9a ac 05 be 19 ee fc bd 8f a1 8c be
       0.040449496 -0.13054124 -0.12350101 -0.2746701
000340 0f c3 2d 3d ca e6 00 be 11 d1 7d be d7 c0 90 be
       0.04242235 -0.12588039 -0.24786784 -0.28272125
000350 59 aa 87 3e fe db 90 3e 62 1d 38 be 92 93 a2 3d
       0.26497152 0.2829284 -0.17979959 0.07938303
000360 f6 78 30 be c6 62 32 be cd e8 2f 3e 27 1d 8c be
       -0.17233643 -0.17420492 0.1717865 -0.2736599
000370 ed 1d aa 3d 40 dd 77 bc d8 97 91 3e 2d c5 79 3e
       0.08306489 -0.015128434 0.2843616 0.24391623
000380 dc 2a 3c 3e 1f cd 63 be 15 68 30 3c 96 3c 8c be
       0.18375725 -0.22246216 0.010767003 -0.27389973
000390 07 d4 ae bd 95 b1 81 3e 30 35 80 be 1c 7c b4 bd
       -0.08536535 0.25330797 -0.2504058 -0.088127345
0003a0 e5 a1 dd 3d a6 6d 5e be 57 ea 77 be 19 51 b5 3d
       0.108218946 -0.21721515 -0.24210487 0.08853359
0003b0 43 0a 13 be 79 46 d1 bd 17 6c 82 be a3 fe fa 3d
       -0.14359383 -0.1021852 -0.2547309 0.12255599
0003c0 f9 0d c8 bd 56 97 6c 3c a2 0f 68 bd 46 cb 57 bc
       -0.0976829 0.014440378 -0.056655534 -0.013171023
0003d0 80 5b df bd 02 32 22 3c 9e dc 08 be dd 4b 0f 3e
       -0.10906124 0.009899618 -0.13365409 0.13993783
0003e0 b3 3d 30 be 35 b2 40 be e9 60 82 3e 29 63 65 be
       -0.17211036 -0.1881798 0.25464562 -0.22401108
0003f0 91 15 2b 3c 08 0d 15 3e 9e a8 bd 3d 7a b1 2a 3d
       0.010442154 0.14555752 0.09260677 0.04167316

bias f4 [37]
000000 00 00 80 3f 00 00 80 3f 00 00 80 3f 00 00 80 3f
       1.0 1.0 1.0 1.0
000010 00 00 80 3f 00 00 80 3f 00 00 80 3f 00 00 80 3f
       1.0 1.0 1.0 1.0
000020 00 00 80 3f 00 00 80 3f 00 00 80 3f 00 00 80 3f
       1.0 1.0 1.0 1.0
000030 00 00 80 3f 00 00 80 3f 00 00 80 3f 00 00 80 3f
       1.0 1.0 1.0 1.0
000040 00 00 80 3f 00 00 80 3f 00 00 80 3f 00 00 80 3f
       1.0 1.0 1.0 1.0
000050 00 00 80 3f 00 00 80 3f 00 00 80 3f 00 00 80 3f
       1.0 1.0 1.0 1.0
000060 00 00 80 3f 00 00 80 3f 00 00 80 3f 00 00 80 3f
       1.0 1.0 1.0 1.0
000070 00 00 80 3f 00 00 80 3f 00 00 80 3f 00 00 80 3f
       1.0 1.0 1.0 1.0
000080 00 00 80 3f 00 00 80 3f 00 00 80 3f 00 00 80 3f
       1.0 1.0 1.0 1.0
000090 00 00 80 3f
       1.0

weight f4 [37, 37]
000000 3f 99 06 bd 2e 46 97 bd 4f f5 f3 3d 81 30 c9 bd
       -0.03286099 -0.073864326 0.11912023 -0.098237045
000010 81 2b 27 bd a1 58 56 3e 50 3a f5 3d ed c6 79 be
       -0.040812973 0.20932247 0.11974013 -0.2439229
000020 b4 7f 37 3d cb 57 67 be 00 21 d2 3d 35 b1 f1 3d
       0.04479952 -0.22592084 0.102602005 0.11801378
000030 08 82 fb 3d 22 26 7f bd 4f 42 89 3d e0 44 3a 3e
       0.12280661 -0.062292226 0.067021005 0.18190336
000040 a3 0a 39 be d1 47 33 be 81 35 51 be ce 6a fe bd
       -0.18070464 -0.17507865 -0.20430566 -0.12422715
000050 17 5b 5f 3d 13 1b 4f be 4d d5 cc 3c 30 05 00 3e
       0.05453023 -0.20225172 0.025004053 0.12501979
000060 8e 54 88 3e bf ff 8d be 58 f6 66 be 43 20 57 be
       0.2662701 -0.2773418 -0.2255491 -0.210084
000070 ff 1e 45 be 51 17 84 be 50 56 0e 3e b7 2a 71 3e
       -0.19250105 -0.2579904 0.13900113 0.2355145
000080 3e ee 83 3d fc 56 20 3e 4d bf 74 be ab 82 66 be
       0.064419255 0.15658182 -0.239011 -0.22510783
000090 cf 45 1e 3d 55 96 7a be b3 6c dd 3d bd ef 89 bd
       0.038640793 -0.2447141 0.10811748 -0.067351796
0000a0 cd e4 cc 3d dc 81 8c bc 18 04 0e 3e 77 c0 61 be
       0.10004578 -0.017151766 0.13868749 -0.22046076
0000b0 52 be 86 be 6f a6 8b 3e 3e f1 68 3e 31 c2 bd bc
       -0.26317078 0.27275416 0.22748277 -0.023163887
0000c0 4a d2 74 3e ff 06 4a 3e 09 66 88 3e 63 f7 85 3e
       0.23908344 0.19729231 0.26640347 0.26165304
0000d0 6c a8 6e be 6b 21 81 be b2 a2 73 be ae a6 8e 3e
       -0.23306435 -0.25220808 -0.23792532 0.27861542
0000e0 54 70 4a be 7c 27 95 39 e5 08 a8 bd e3 85 64 be
       -0.19769412 0.00028448913 -0.082048215 -0.22316699
0000f0 a4 e2 82 be ce 2a 69 3e 59 59 dc 3d d1 44 7f bd
       -0.25563538 0.22770235 0.10759229 -0.062321488
000100 7f 6d cd bc 6f 50 3d bd 3c b1 17 3e 89 d4 06 3e
       -0.025076626 -0.046219286 0.14813703 0.13167013
000110 7d c0 8b be 28 a3 65 3e a1 f9 15 bd 1a e6 82 3e
       -0.27295294 0.2242552 -0.036615018 0.2556618
000120 dd 12 4f 3e 73 20 b9 3d 04 e8 83 bd 55 92 62 3c
       0.2022204 0.09039392 -0.06440738 0.013828834
000130 51 98 13 be c5 82 43 be ec ab 65 bc 96 98 30 be
       -0.14413573 -0.19092853 -0.01401804 -0.17245707
000140 ba 0a 63 be fa 87 f2 3d ce 32 d0 bc 64 55 cb bc
       -0.2217206 0.11842342 -0.02541485 -0.02482099
000150 b5 af 8c be c3 d8 83 3e 37 23 8d be c6 a0 1c 3d
       -0.27477804 0.25751314 -0.2756593 0.038239263
000160 80 18 48 be 04 4f b5 bd 69 6e d1 bd 2c f1 1f be
       -0.19540596 -0.08852962 -0.10226137 -0.15619344
000170 57 f3 60 3e 79 01 9b bc 84 5c 4b 3e f4 23 07 bd
       0.21967827 -0.0189216 0.1985951 -0.032993272
000180 24 b1 00 3e 43 4d ee bd 8a 81 5a 3e 87 3f 16 be
       0.12567574 -0.1163583 0.21338478 -0.14672671
000190 a6 2c 79 3e 4d e6 82 be 11 04 6d 3e 94 86 85 3e
       0.24333438 -0.2556633 0.23146082 0.26079237
0001a0 ed 07 f8 bd d1 ec 8c bd 74 02 47 be b1 58 45 3e
       -0.12110887 -0.06881107 -0.1943453 0.19272114
0001b0 9f 62 8b 3c 7d 76 d1 3d 90 6f fc bc fc 1c 1b 3d
       0.0170148 0.10227678 -0.030814916 0.03786944
0001c0 ae 1f 81 be a6 56 f6 3c e4 4d 13 be 99 92 4c 3d
       -0.25219482 0.030070614 -0.14385182 0.049944494
0001d0 f0 43 80 3e c7 d7 72 be 53 55 b9 3c b2 63 a8 3d
       0.25051832 -0.23715125 0.022623694 0.0822214
0001e0 2b 50 29 3e db a6 5b 3e 0a 31 85 3d 88 51 4c 3c
       0.16534488 0.21450369 0.06503494 0.01247061
0001f0 05 e3 33 3d 1d 6a 64 3e 05 a5 df bc 6e 0f 8a 3e
       0.043917675 0.22306104 -0.027300367 0.26964897
000200 1c 32 48 be b8 1e 90 3d 95 5e 21 3b 9b 0b e7 bd
       -0.19550365 0.07037109 0.0024623026 -0.112815104
000210 fb b0 d9 bc ff 94 96 bd 53 f7 77 be 9f 2b 40 be
       -0.026573649 -0.073526375 -0.2421544 -0.1876664
000220 2f 4e 5e 3e 4d a4 13 3e 0a 65 ad 3d 97 7b d3 bb
       0.21709512 0.14418145 0.08466537 -0.006453942
000230 7a a7 2c 3e f4 6b 1c be 99 f7 5f 3e 34 b3 4b be
       0.16860762 -0.15275556 0.21871795 -0.1989258
000240 56 ba c2 bd 8e 5a 81 bc 2d 92 b4 3d 4a 5d 57 bd
       -0.09508197 -0.01579025 0.08816943 -0.0525792
000250 fc bb 79 3d 11 54 87 3e f2 c8 21 3e e2 a6 6c be
       0.06097029 0.26431325 0.15799311 -0.23110536
000260 7e 9c fb bd 92 1d 6c 3d ce 2a 9d 3b 0d 3a 1c bd
       -0.12285708 0.057645388 0.0047963625 -0.0381413
000270 f1 d8 19 3e d1 3d 0b bb 5c ee 30 3e f2 89 45 3e
       0.15024163 -0.0021246562 0.17278427 0.19290903
000280 f7 a8 83 3e 77 b2 00 be a0 a9 4d be 7a 66 6f 3e
       0.25714847 -0.12568079 -0.20084238 0.23378935
000290 2d fd 8b 3e 47 aa e7 bd a5 af 72 be 36 ba db bd
       0.27341595 -0.11311775 -0.23699816 -0.10728876
0002a0 48 d5 0a be 47 ed 48 3e 7d 70 cd bd 4e 63 9f 3d
       -0.13557923 0.19621764 -0.10031221 0.07782613
0002b0 55 b0 26 be a5 b1 1c 3c 65 34 61 3e ce 0f 48 bb
       -0.16278203 0.009563838 0.21992643 -0.0030526998
0002c0 fd 61 b8 3d 6a 68 77 be e4 58 be bc 71 be 8c bc
       0.09003065 -0.24160925 -0.023235746 -0.017180653
0002d0 fa a8 a5 3d 31 3e 88 be 2b a1 51 3d ee 78 75 3e
       0.0808887 -0.26609948 0.051179092 0.23971912
0002e0 8d a0 5f be 23 3e 08 3c 71 db 0e be f3 ad 88 3e
       -0.21838589 0.008315596 -0.13950898 0.26695213
0002f0 35 a0 00 3e 0a 7a 73 be ac e1 7a 3e c5 6b 67 3e
       0.12561114 -0.23777023 0.2450015 0.22599705
000300 75 7b b5 bd 5c 81 12 bd 78 18 14 3e f1 62 7a be
       -0.08861438 -0.035767898 0.14462459 -0.24451806
000310 c3 2c 90 be d8 3c 2d be 8d 2d 56 3e 9e 0c 80 3e
       -0.2815915 -0.16917741 0.20915814 0.25009626
000320 51 55 1c bd b8 8e 43 3c cb 12 22 bd e0 01 20 3d
       -0.0381673 0.011935882 -0.039568704 0.03906429
000330 08 5e 59 3e f0 76 45 3e 24 08 46 3d 35 67 18 be
       0.21227276 0.19283652 0.048347607 -0.1488312
000340 b7 f5 42 be 71 f7 a8 3d 81 7b 52 3e 96 fe 7c 3e
       -0.19039045 0.08250321 0.20554926 0.24706492
000350 39 19 a6 bd 2e f7 40 3e c7 a0 42 be 44 14 69 be
       -0.081102796 0.18844292 -0.19006644 -0.22761637
000360 76 40 16 bd 67 97 09 be bc b0 4f be 75 d3 1d 3e
       -0.03668257 -0.13436662 -0.20282263 0.15412696
000370 d0 96 0a bd 55 98 89 be b2 e2 8a 3e fc 82 46 3e
       -0.033835232 -0.26874033 0.2712608 0.19385904
000380 b0 d3 fc 3d 79 cc d2 bc 31 a4 27 be ec d8 5a be
       0.12345064 -0.025732266 -0.16371228 -0.21371812
000390 cc 6f 03 3e 7d 0f 87 3d 5f da eb 3d 7f 58 27 3d
       0.12835616 0.06594751 0.1151626 0.04085588
0003a0 a0 34 40 be e3 7b 58 be cf 74 08 3e 9d 06 4d 3e
       -0.18770075 -0.21141009 0.13325809 0.20022054
0003b0 56 e5 a7 3c 76 57 2d bd f7 a8 fa 3c e4 e9 46 3e
       0.020495098 -0.042319737 0.030598147 0.1942516
0003c0 8d 74 3b bd de 6c 52 bd 99 11 44 3e d0 c3 84 3e
       -0.04576545 -0.051373355 0.19147338 0.25930643
0003d0 9e 83 37 bc fb 55 b6 3d 85 af 06 be 57 2c a7 3d
       -0.011200814 0.08903118 -0.13152893 0.08162754
0003e0 3c 57 82 3e 08 53 c0 3c b4 f9 80 3e 45 cd ac bd
       0.2545718 0.023477092 0.25190508 -0.084375896
0003f0 0e b2 36 3e 82 89 34 3e cf 9f 2c 3e 2a a3 91 3e
       0.1784136 0.1763058 0.16857837 0.28444797

bias f4 [37]
000000 00 00 80 3f 00 00 80 3f 00 00 80 3f 00 00 80 3f
       1.0 1.0 1.0 1.0
000010 00 00 80 3f 00 00 80 3f 00 00 80 3f 00 00 80 3f
       1.0 1.0 1.0 1.0
000020 00 00 80 3f 00 00 80 3f 00 00 80 3f 00 00 80 3f
       1.0 1.0 1.0 1.0
000030 00 00 80 3f 00 00 80 3f 00 00 80 3f 00 00 80 3f
       1.0 1.0 1.0 1.0
000040 00 00 80 3f 00 00 80 3f 00 00 80 3f 00 00 80 3f
       1.0 1.0 1.0 1.0
000050 00 00 80 3f 00 00 80 3f 00 00 80 3f 00 00 80 3f
       1.0 1.0 1.0 1.0
000060 00 00 80 3f 00 00 80 3f 00 00 80 3f 00 00 80 3f
       1.0 1.0 1.0 1.0
000070 00 00 80 3f 00 00 80 3f 00 00 80 3f 00 00 80 3f
       1.0 1.0 1.0 1.0
000080 00 00 80 3f 00 00 80 3f 00 00 80 3f 00 00 80 3f
       1.0 1.0 1.0 1.0
000090 00 00 80 3f
       1.0
